flattened_code/models/autoencoder_spotify.pt (torch, 3871 bytes, 4 tensors)

weight f4 [4, 28]
0	0x3e9c0bdf	0.30477807
1	0x3ea19491	0.3155866
2	0x3eb2cc58	0.34921527
3	0x3d061488	0.032734424
4	0x3e190f85	0.14947326
5	0xbd072d63	-0.03300227
6	0x3e6f33b1	0.23359562
7	0x3da26596	0.07929532
8	0x3e3ab236	0.18232045
9	0x3e663f8a	0.22485176
10	0x3ecaad80	0.39585495
11	0x3e7a45d3	0.24440698
12	0x3e2264bf	0.15858744
13	0xbeb378b1	-0.35053018
14	0x3eaa11ae	0.33216614
15	0x3ef095ff	0.46989438
16	0x3e2a7c57	0.16648994
17	0x3e506705	0.20351799
18	0x3e864b00	0.26229095
19	0x3eaa317f	0.33240888
20	0xbdd6777d	-0.10472009
21	0x3e8d2638	0.2756822
22	0x3e270f22	0.16314366
23	0xbece1d5e	-0.4025678
24	0x3ded6ebb	0.11593386
25	0x3d84d221	0.064853914
26	0xbe623995	-0.22092278
27	0x3d3d94c1	0.04628444
28	0x3e9bd161	0.3043318
29	0x3e3abe8a	0.18236747
30	0x3c999999	0.018749999
31	0x3e3571af	0.17719148
32	0xbd47a15b	-0.048737865
33	0x3d178781	0.03699446
34	0x3e1b8e5d	0.15191026
35	0x3de08562	0.10962941
36	0x3ec09fa9	0.3762181
37	0x3d1aade5	0.037763495
38	0x3d7a26c6	0.061072133
39	0x3d9624f2	0.073312655
40	0x3df710c4	0.12063745
41	0xbdd380d2	-0.10327305
42	0x3e5b77a9	0.21432365
43	0x3e4d0b3b	0.20023815
44	0x3d606050	0.05477935
45	0x3e40ab55	0.18815358
46	0x3e285de1	0.16442062
47	0x3e41ba9c	0.18918842
48	0x3c789bb9	0.015173846
49	0x3e988ce3	0.29794988
50	0x3eadc73e	0.33941072
51	0xbecb4c8c	-0.39706838
52	0x3dc50f3e	0.09622048
53	0x3da7c00a	0.081909254
54	0xbe591069	-0.21197666
55	0xbdc7b849	-0.097519465
56	0x3ef4f4ee	0.47843117
57	0x3e9a60ac	0.3015188
58	0x3e9823d5	0.29714838
59	0x3e94393e	0.28949922
60	0x3dbeed19	0.093225665
61	0x3e2229a3	0.15836196
62	0x3e1d21b4	0.15344888
63	0x3e25b07d	0.16180606
64	0x3ebb2deb	0.3655847
65	0x3e353f71	0.17699982
66	0x3e7e9081	0.24859811
67	0x3e751830	0.23935008
68	0x3ea50e4a	0.32237464
69	0xbecae7e2	-0.39630038
70	0x3e5f20a5	0.21789797
71	0x3ea9bbc7	0.33151075
72	0x3d62c0ad	0.05535953
73	0x3e2e2b41	0.17008688
74	0x3edaa835	0.42706457
75	0x3e0e3818	0.13888586
76	0xbe8b23fe	-0.27175897
77	0x3e03f582	0.12886623
78	0x3e7fed23	0.24992804
79	0xbf1ca975	-0.6119607
80	0x3e62cf17	0.22149311
81	0x3e3e9152	0.18610123
82	0xbbd748e7	-0.00656997
83	0xbe2416c5	-0.16024311
84	0x3e9de010	0.3083501
85	0x3e9bb9fe	0.30415338
86	0x3ebfcfb9	0.37463167
87	0x3e8a258a	0.26981765
88	0x3dcbac59	0.09944982
89	0x3e12afd3	0.14324884
90	0x3eb5c196	0.35499257
91	0x3ded6052	0.11590637
92	0x3f0421ba	0.5161396
93	0x3ea973d9	0.33096197
94	0x3ea2ef09	0.31822994
95	0x3d9b9dd8	0.07598466
96	0x3ed340d0	0.41260386
97	0xbea8f61a	-0.3300026
98	0x3edd84c7	0.43265364
99	0x3ee8b726	0.4545223
100	0x3e22da33	0.15903549
101	0x3e5cb20b	0.21552293
102	0x3efbf231	0.49208215
103	0x3e906ebc	0.28209484
104	0xbdb36c8f	-0.0876094
105	0x3e08080a	0.13284317
106	0x3e9127e1	0.28350738
107	0xbdeff0ed	-0.11715875
108	0x3cea5b61	0.028608026
109	0x3eb81529	0.35953644
110	0xbe977eda	-0.29588968
111	0xbe65cf40	-0.22442341

bias f4 [4]
0	0x3e92d164	0.28675377
1	0x3e0f31b2	0.13983801
2	0x3ef2a500	0.4739151
3	0x3e753c9b	0.239489

weight f4 [28, 4]
0	0xbdc4f449	-0.09616906
1	0x3d633a1a	0.05547533
2	0x3ec9d991	0.39423802
3	0xbe814be3	-0.2525321
4	0x3ef5a87c	0.47980106
5	0xbdc8e522	-0.098093286
6	0x3f051917	0.5199141
7	0x3f3edb92	0.7455379
8	0x3eea1207	0.4571688
9	0xbf161a5e	-0.58633983
10	0x3e4bda9d	0.19907613
11	0x3ee90467	0.4551117
12	0x3de3138b	0.11087712
13	0xba9b6d99	-0.0011858224
14	0xbe8c6beb	-0.27426085
15	0x3e17b2b8	0.1481427
16	0xbdcd4034	-0.100220114
17	0xbe9678cf	-0.29389045
18	0x3f0cf055	0.5505422
19	0xbe81451b	-0.25248036
20	0xbe2a20e4	-0.1661411
21	0xbf1e5850	-0.61853504
22	0x3c7bc38b	0.015366445
23	0x3ed01aa8	0.40645337
24	0xbc2124ab	-0.0098354025
25	0x3dd2a896	0.102860615
26	0xbec60c19	-0.38681105
27	0x3eb14e91	0.34630254
28	0x3dcb345b	0.099220954
29	0x3e18c679	0.14919461
30	0xbd387b47	-0.04503944
31	0xbda9bd2e	-0.08288036
32	0xbe07cda2	-0.13262036
33	0x3f22162d	0.6331509
34	0xbe4b56c3	-0.19857316
35	0x3da8e476	0.082467005
36	0xbe8cd007	-0.27502462
37	0xbee51e43	-0.4474965
38	0x3ee321c8	0.4436171
39	0x3e674083	0.22583203
40	0x3ed3de0d	0.4138035
41	0xbef2d793	-0.47430095
42	0xbe293d16	-0.16527209
43	0xbd6508ad	-0.055916477
44	0x3ea9e49c	0.33182228
45	0xbe84155c	-0.25797546
46	0x3e79ff66	0.24413833
47	0xbed482fd	-0.41506186
48	0xbe8d1f10	-0.2756276
49	0xbed63403	-0.41836557
50	0x3da0f144	0.07858518
51	0x3eb9947a	0.3624609
52	0xbd97e745	-0.07417158
53	0x3e7bf3a0	0.24604654
54	0xbd3bad71	-0.045819703
55	0xbba3ee1e	-0.005002751
56	0x3d42f27e	0.04759454
57	0x3cb6c408	0.022310272
58	0xbed1fdf7	-0.41014072
59	0x3ea8e765	0.3298904
60	0xbe286f78	-0.16448772
61	0xbe5cd422	-0.21565297
62	0x3ecc4706	0.39897937
63	0xbdd863dc	-0.10565922
64	0x3e1a5f40	0.15075397
65	0xbdf3789e	-0.1188824
66	0xbdd8da01	-0.10588456
67	0x3b6a3168	0.0035735015
68	0xbddee236	-0.1088299
69	0x3d89d93f	0.067308895
70	0xbeaf5cf5	-0.34250608
71	0x3ed14a0f	0.40876815
72	0x3e49a852	0.19693115
73	0xbf473886	-0.7782062
74	0x3e449a2b	0.19199435
75	0x3d0c9e26	0.03433051
76	0x3d56fc41	0.05248666
77	0x3e35032f	0.17676996
78	0xbd20cb82	-0.03925658
79	0xbd8b1c6e	-0.06792532
80	0xbe3225c5	-0.1739722
81	0xbe491cad	-0.19639845
82	0x3ecec67e	0.40385813
83	0xbe012239	-0.12610711
84	0xbc92c5b1	-0.017916532
85	0x3f21c498	0.63190603
86	0xbdd627d7	-0.104568176
87	0xbdfbd0c7	-0.122956805
88	0x3ea1951e	0.3155908
89	0x3e4f2a87	0.20231067
90	0xbe8332f5	-0.25624815
91	0xbe0d1ad5	-0.13779767
92	0xbe692436	-0.2276772
93	0xbe76e06f	-0.24109052
94	0x3de3ac3c	0.111168355
95	0x3e5438b4	0.20724756
96	0x3e470dc2	0.19438842
97	0xbe3ddf10	-0.18542123
98	0x3d9084dd	0.07056592
99	0xbe31527f	-0.17316626
100	0xbe4d4890	-0.20047212
101	0x3d5ddb7f	0.054164406
102	0x3db80570	0.08985412
103	0x3dc0e3a4	0.09418419
104	0xbeb7ea13	-0.35920772
105	0xbe573ecc	-0.21020049
106	0x3e18093c	0.14847273
107	0x3e8ee4c2	0.27908903
108	0x3e84ac88	0.2591288
109	0xbea05fb7	-0.31323025
110	0x3e73baf8	0.23801792
111	0xbeaa75af	-0.3329291

bias f4 [28]
0	0xbe186f1c	-0.14886135
1	0x3e8dfc38	0.2773149
2	0xbebaca3c	-0.36482418
3	0xbe8415a4	-0.2579776
4	0x3df9b852	0.121933594
5	0x3e3cf7eb	0.18453948
6	0xbedbf9e8	-0.429641
7	0xbe21f1dd	-0.1581492
8	0xbe9a8236	-0.30177468
9	0x3cb1f677	0.021723969
10	0xbe9f8e8b	-0.3116344
11	0xbe8263b5	-0.25466695
12	0xbea20c9e	-0.3165025
13	0x3f07da8e	0.53067863
14	0xbeeabb36	-0.45845956
15	0x3ee93329	0.45546845
16	0x3e9274fe	0.28604883
17	0xbe50f5f6	-0.20406327
18	0xbd4461af	-0.04794472
19	0x3d0f75ed	0.035024572
20	0xbe999fb5	-0.3000466
21	0xbe82ef84	-0.2557336
22	0x3d46b8fc	0.04851626
23	0x3ecfc54b	0.4058021
24	0xbec7f4a8	-0.39053845
25	0xbf04bb29	-0.51848084
26	0x3e8fcc30	0.2808547
27	0x3e17bc65	0.1481796
