flattened_code/models/autoencoder_spotify.pt (torch, 3935 bytes, 4 tensors)

weight f4 [4, 28]
0	0x3e5c901a	0.21539345
1	0xbbadbc12	-0.0053019607
2	0x3de9afa2	0.114104524
3	0x3e403b94	0.18772727
4	0xbc1055a2	-0.008809479
5	0x3e91ce2f	0.28477618
6	0xb8dd6162	-0.0001055624
7	0x3e3a1778	0.18173015
8	0x3e77d62a	0.24202791
9	0x3dce9d1d	0.10088561
10	0x3c6d79ca	0.014494369
11	0x3df8ad43	0.12142422
12	0x3d111742	0.03542257
13	0xbdeb5b2c	-0.11491999
14	0x3c849b7c	0.016187422
15	0x3da504a4	0.08057526
16	0x3b6428bb	0.0034814316
17	0x3e99accd	0.3001465
18	0x3d1df955	0.03856786
19	0x3e8680d2	0.26270157
20	0xbd8aa5a8	-0.06769878
21	0x3e67d45d	0.22639604
22	0x3ea9aac1	0.33138087
23	0x3e3bcde6	0.18340263
24	0xbe50f41a	-0.20405617
25	0x3e723a2f	0.23655008
26	0xbe8e3110	-0.27771807
27	0x3e32b439	0.17451562
28	0xbe09fbad	-0.13474913
29	0xbe34f539	-0.1767167
30	0xbec7dc00	-0.39035034
31	0xbe80a011	-0.2512212
32	0xbd30dd8d	-0.043180037
33	0xbe9ed101	-0.31018832
34	0xbdf2c20a	-0.11853416
35	0xbe49ce2f	-0.19707559
36	0xbe3b1ded	-0.18273135
37	0xbe4b1a73	-0.19834308
38	0xbeec2d39	-0.46128252
39	0xbe97dd8d	-0.29661217
40	0xbe422a4c	-0.18961447
41	0x3eb7aea8	0.3587544
42	0xbe421573	-0.18953495
43	0xbeda94fe	-0.42691797
44	0xbd272c0f	-0.040813502
45	0xbe04cef9	-0.12969579
46	0xbedca803	-0.43096933
47	0xbe2efb76	-0.17088112
48	0x3da23f0b	0.07922181
49	0xbe398996	-0.18118891
50	0xbe8f5ed7	-0.28002045
51	0x3f0b1971	0.54335696
52	0xbe22f1f8	-0.15912616
53	0xbe56a934	-0.20962983
54	0x3e43b2c2	0.1911116
55	0x3dc050c6	0.09390406
56	0xbd2f0b5f	-0.042735454
57	0xbe027efc	-0.12743753
58	0xbd50b70e	-0.050955825
59	0x3d592e19	0.053022478
60	0x3d04edd5	0.032453377
61	0x3e4294fe	0.19002149
62	0x3d3b3c7e	0.045711987
63	0xbdc84410	-0.09778607
64	0x3de50c3e	0.11183976
65	0x3e1c3e51	0.15258147
66	0x3dab1c1a	0.08354969
67	0x3e40f593	0.18843679
68	0x3e437704	0.1908837
69	0x3d9a73a9	0.07541592
70	0x3d158176	0.036500417
71	0x3e1a3299	0.15058364
72	0xbae3f478	-0.0017391583
73	0x3c90563f	0.01761925
74	0x3d639e28	0.05557075
75	0x3e195592	0.14974049
76	0xbcf0928e	-0.029366758
77	0xbd80fc7b	-0.06298157
78	0xbbac5dd5	-0.005260209
79	0xbe9cecd4	-0.30649436
80	0xbd275ff1	-0.04086298
81	0x3e5f9eab	0.21837871
82	0x3e7a0a1a	0.24417916
83	0xbd0ec0bf	-0.034851786
84	0xbe3508ce	-0.1767914
85	0xbeb48189	-0.35255077
86	0xbecdd9cf	-0.40205237
87	0xbe1082f0	-0.14112449
88	0xbe69c0dd	-0.22827478
89	0xbe4f73b5	-0.20258982
90	0xbebbb8c5	-0.36664405
91	0xbe9b5986	-0.30341738
92	0xbe6f5f78	-0.23376262
93	0xbe3d41a6	-0.18482074
94	0xbeeb7293	-0.4598585
95	0xbe2339fc	-0.15940088
96	0xbe317d7a	-0.17333022
97	0x3e883529	0.26603058
98	0xbe9bfa08	-0.30464196
99	0xbf00a746	-0.5025524
100	0xbe6d9e9b	-0.23205034
101	0xbe290296	-0.16504893
102	0xbed537c2	-0.41644102
103	0xbe9d1488	-0.30679727
104	0x3e6ad017	0.22930942
105	0xbe93c629	-0.28862122
106	0xbe69d61b	-0.22835581
107	0x3f215ee6	0.6303543
108	0xbec4f5f1	-0.38468888
109	0xbe08e470	-0.13368392
110	0x3df96950	0.1217829
111	0x3eab6bb9	0.33480623

bias f4 [4]
0	0x3e1766b4	0.14785272
1	0xbecf7f97	-0.4052703
2	0xbda54692	-0.08070101
3	0xbefdaea0	-0.4954729

weight f4 [28, 4]
0	0x3de62dd0	0.11239207
1	0x3e22f15f	0.15912388
2	0x3da0aff4	0.078460604
3	0xbe0a32a5	-0.13495882
4	0x3ebae9f3	0.36506614
5	0xbf405dea	-0.751433
6	0xbeba2f44	-0.36364186
7	0xbf58585d	-0.8450983
8	0xbdb102c4	-0.086431056
9	0xbeb93449	-0.36172703
10	0xbd4ec079	-0.050476525
11	0xbf093f36	-0.5361208
12	0x3e178c19	0.14799537
13	0xbeba062e	-0.3633284
14	0x3db0ae30	0.08626974
15	0x3e876c54	0.26449835
16	0x3e5585c2	0.20851806
17	0x3e323099	0.17401351
18	0x3e15a699	0.14614333
19	0xbe1721fd	-0.14759059
20	0x3eb9c581	0.36283496
21	0x3e898eeb	0.2686685
22	0x3dc991ea	0.09842284
23	0xbe31109c	-0.17291492
24	0x3eb518cf	0.3537049
25	0x3e9899ed	0.29804936
26	0xbe6bc4e1	-0.23024322
27	0xbe145853	-0.14486818
28	0x3dd5fd42	0.10448696
29	0x3e8c6170	0.2741809
30	0x3ec8e063	0.39233693
31	0xbe8f94d9	-0.2804325
32	0xbe42493b	-0.18973248
33	0xbe487092	-0.19574192
34	0x3e9d2579	0.30692652
35	0x3cf4a87c	0.029865496
36	0x3d8944a3	0.067025445
37	0x3c3f99b1	0.011694358
38	0xbec9aae1	-0.39388183
39	0xbdda7be1	-0.10668159
40	0xbcd73798	-0.026271626
41	0xbd6ecea8	-0.05830255
42	0xbdf38ea6	-0.118924424
43	0x3d63eace	0.05564385
44	0xbdd094b9	-0.101846166
45	0x3ea6f50e	0.32608837
46	0x3ece1a5f	0.40254495
47	0xbea97a6e	-0.3310122
48	0xbe10a22d	-0.14124365
49	0xbdef074f	-0.11671316
50	0x3ee8c7b6	0.45464867
51	0xbd096a7d	-0.03354882
52	0x3e9426f9	0.28935984
53	0x3df028e8	0.11726552
54	0x3b6a4d1b	0.0035751525
55	0xbce3adad	-0.027792776
56	0x3e180458	0.14845407
57	0xbe7fa8e1	-0.24966766
58	0x3e9bf898	0.304631
59	0x3e034646	0.12819776
60	0xbe6b0057	-0.22949348
61	0xbd63e1bb	-0.055635195
62	0x3e76d2ce	0.24103853
63	0xbd55c36c	-0.052188322
64	0x3dc3daa6	0.09563188
65	0x3e40ac6b	0.18815772
66	0xbe4c1759	-0.19930781
67	0xbdb8a169	-0.090151615
68	0x3dbfcb70	0.093649745
69	0xbdf87752	-0.121321335
70	0xbea4b427	-0.32168695
71	0x3e090ea0	0.13384485
72	0xbdd2cc88	-0.102929175
73	0xbcb236e6	-0.021754693
74	0x3db44aaa	0.088033035
75	0xbdcaed7f	-0.0990858
76	0x3de82a7e	0.1133623
77	0x3cf798b4	0.030224182
78	0x3e8ce35f	0.2751722
79	0xbd977a2d	-0.0739635
80	0xbe22c8ba	-0.15896884
81	0xbc89847a	-0.016786803
82	0x3ecba9c1	0.3977795
83	0xbda26835	-0.07930032
84	0x3dd0007f	0.101563446
85	0xbe2fddfa	-0.17174521
86	0xbead22bd	-0.33815566
87	0x3e418461	0.18898155
88	0x3eb5c6e0	0.35503292
89	0x3ec4bb0b	0.38423952
90	0x3e4cf71f	0.20016144
91	0xbe88efac	-0.26745355
92	0xbe7a77e6	-0.244598
93	0xbe914dc2	-0.28379637
94	0xbeda65f8	-0.4265592
95	0x3e77dbb6	0.24204907
96	0xbdd3bedc	-0.10339138
97	0x3d01600a	0.03158573
98	0xbdae127f	-0.084996216
99	0xbcbd319c	-0.023094945
100	0xbbc9e24e	-0.006161011
101	0x3d87d0ff	0.0663166
102	0x3ee4bdaf	0.44675967
103	0xbe0ac596	-0.13551936
104	0xbe0583ab	-0.13038509
105	0xbe5139f6	-0.20432267
106	0x3ed73f26	0.42040366
107	0x3d5fb922	0.054619916
108	0x3e21889d	0.1577477
109	0xbe60600d	-0.2191164
110	0x3e2419d6	0.1602548
111	0x3e176930	0.1478622

bias f4 [28]
0	0x3d4ddeb4	0.050261214
1	0xbde0447b	-0.109505616
2	0x3f22cc75	0.63593227
3	0x3f29fa7d	0.6639784
4	0xbf04e06d	-0.51904947
5	0x3f129e9a	0.57273257
6	0xbdf16805	-0.11787418
7	0xbef524b2	-0.4787956
8	0x3eb23839	0.3480852
9	0xbdcfee40	-0.101528645
10	0xbe78b4d9	-0.24287738
11	0x3ea39c65	0.31955257
12	0xbd14cea5	-0.036329884
13	0xbf15ab69	-0.58464676
14	0x3f3262cd	0.6968201
15	0x3e4a3060	0.19745016
16	0xbeb90ec4	-0.36144078
17	0x3e812333	0.25222167
18	0x3e2acc1d	0.16679426
19	0xbf0f573b	-0.5599248
20	0xbe4f13b0	-0.20222354
21	0xbe5686d6	-0.20949873
22	0xbed84d27	-0.42246363
23	0xbdf8cbe1	-0.12148262
24	0xbedab2ce	-0.42714542
25	0x3df2eff6	0.11862175
26	0x3e07b3f5	0.13252242
27	0x3c1d675c	0.009607162
