flattened_code/models/autoencoder_spotify_final.pt (torch, 3871 bytes, 4 tensors)

weight f4 [4, 28]
0	0x3c37f408	0.011227615
1	0x3d90ca2f	0.070698135
2	0xbdd2f647	-0.1030088
3	0x3c70f54e	0.014706923
4	0x3d45de28	0.048307568
5	0xbd059a2a	-0.032617725
6	0xbe379bf3	-0.17930584
7	0xb9977d95	-0.0002889453
8	0x3d469eda	0.048491336
9	0xbe0f7440	-0.1400919
10	0x3d470f21	0.048598412
11	0x3d5ba6db	0.053625923
12	0xbd7b47d0	-0.061347783
13	0x3d7c37e7	0.06157675
14	0xbe07fb90	-0.13279557
15	0xbda2301a	-0.07919331
16	0x3c52b738	0.012861066
17	0x3dc6c725	0.097059526
18	0xbd3cef0d	-0.046126414
19	0xbd1f4813	-0.038887095
20	0x3d8c214e	0.0684229
21	0x3e2d2a2b	0.16910617
22	0x3cfb183f	0.03065121
23	0x3e709273	0.23493366
24	0xbdef7752	-0.116926804
25	0x3e05df3e	0.13073441
26	0xbdb6e960	-0.089312315
27	0xbdf45765	-0.11930732
28	0xbe2ffc77	-0.17186151
29	0xbd2ca127	-0.042145874
30	0xbdfba73f	-0.12287759
31	0x3e5d7099	0.21624984
32	0x3caff738	0.021480188
33	0xbc8924e0	-0.016741216
34	0xbd94706e	-0.07248007
35	0xbe59703d	-0.21234222
36	0xbea3871b	-0.31939015
37	0xbd089a59	-0.033350322
38	0xbda34c04	-0.07973483
39	0x3dd4b3f5	0.103858866
40	0xbd8f476c	-0.069960445
41	0xbd109ce2	-0.035305865
42	0xbe7b056c	-0.24513787
43	0xbea5aa6f	-0.32356593
44	0xbd3fd7f6	-0.046836816
45	0xbd235fa7	-0.039886143
46	0xbe6a8342	-0.22901633
47	0xbdae7e62	-0.08520199
48	0x3e3d4bea	0.1848599
49	0xbdb8473f	-0.08997964
50	0xbdfcb631	-0.12339438
51	0x3cda6ee2	0.026664201
52	0xbdd6059f	-0.10450291
53	0x3e6e9a0a	0.23300949
54	0x3e61c12e	0.22046348
55	0xbd1bc283	-0.038027298
56	0x3dd2db43	0.10295727
57	0x3eabc770	0.33550596
58	0x3e28c4b9	0.16481294
59	0xbd03de56	-0.032194458
60	0x3de30896	0.11085622
61	0xbd66ade3	-0.056318175
62	0x3e1b56f1	0.15169884
63	0x3c63a1c7	0.013893551
64	0x3ebecad4	0.3726412
65	0x3ed14c0a	0.40878326
66	0x3e04e37c	0.12977403
67	0x3d8c893e	0.06862114
68	0xbd44d738	-0.04805681
69	0xbea9d1f5	-0.33167997
70	0xbbe1aa0e	-0.006886727
71	0x3e856a59	0.260577
72	0xbd83eaea	-0.06441291
73	0x3e2a2ec7	0.16619407
74	0x3de0f036	0.109833166
75	0x3dc82009	0.09771735
76	0x3a928bda	0.0011180595
77	0xbcb45420	-0.02201277
78	0xbcf77f80	-0.030212164
79	0xbe4863b9	-0.19569291
80	0x3da530d5	0.080659546
81	0xbd888a93	-0.06667056
82	0x3e39ce42	0.18145087
83	0xbcfdb98f	-0.03097227
84	0x3d6dd9a9	0.058068905
85	0xbd2ca5c2	-0.042150266
86	0xbd34e5a2	-0.044164307
87	0x3d55e4d3	0.052220177
88	0x3d67f0a3	0.056625973
89	0xbdb2199c	-0.08696291
90	0xbd9f1b5f	-0.077688925
91	0x3e3a3ff9	0.18188466
92	0x3e174b34	0.14774781
93	0x3c3470f5	0.011013259
94	0x3ddc507e	0.1075754
95	0x3c85d484	0.016336687
96	0xbe4cf3dd	-0.20014901
97	0xbe2b8154	-0.16748554
98	0x3d361a1b	0.04445849
99	0xbdf75a44	-0.12077764
100	0xbda4d6fb	-0.08048817
101	0x3ddfcfe2	0.109283224
102	0x3e25371d	0.16134305
103	0x3dd909bd	0.105975606
104	0xbd6b60c3	-0.057465326
105	0xbe57fa40	-0.21091557
106	0x3dc16c36	0.09444468
107	0xbdc37a07	-0.09544759
108	0x3e227ed3	0.15868692
109	0xbda2b360	-0.07944369
110	0x3ded6888	0.115922034
111	0xbcda8556	-0.026674908

bias f4 [4]
0	0xbd1155f2	-0.035482354
1	0xbecb3715	-0.39690462
2	0x3ed06b39	0.40706804
3	0xbd2eb1c9	-0.042650018

weight f4 [28, 4]
0	0x3d8fa211	0.070133336
1	0xbdedca84	-0.116108924
2	0xbc8ad54c	-0.016947411
3	0xbe196341	-0.14979269
4	0xbed46f6b	-0.41491255
5	0xbf15e89d	-0.58558065
6	0x3fd932db	1.6968645
7	0xbf6ea47a	-0.9321972
8	0x3eae744d	0.34073105
9	0xbdfaf238	-0.12253231
10	0x3f7d6dc5	0.9899562
11	0xbebc6978	-0.36799216
12	0x3e220a5f	0.15824269
13	0xbc06cfcf	-0.008228256
14	0xba2d2828	-0.000660541
15	0xbe2d4023	-0.16918997
16	0xbe206c83	-0.15666394
17	0xbc9c89f6	-0.019108754
18	0x3c25f9c6	0.010130351
19	0xbe477e82	-0.19481853
20	0xbee69a3b	-0.45039544
21	0xbea1bcc3	-0.31589326
22	0xbd547ffd	-0.05187987
23	0x3e4b5a06	0.1985856
24	0xbfb72e8d	-1.4311081
25	0xbdff0e19	-0.12453861
26	0xbd1390b4	-0.03602667
27	0xbe09ac26	-0.13444576
28	0x3eab1e5c	0.334216
29	0x3e3d98c5	0.18515308
30	0x3dc56cd9	0.09639902
31	0x3de0c165	0.10974387
32	0x3f18493a	0.59486735
33	0xbe63d121	-0.22247745
34	0xbb04ee72	-0.0020283726
35	0x3e0e8b4d	0.13920327
36	0xbcd3f7c9	-0.02587499
37	0x3e629a5d	0.22129197
38	0x3e728486	0.23683366
39	0xbf49d684	-0.7884295
40	0x3f42d674	0.7610848
41	0x3e01396f	0.12619565
42	0x3d2c5d82	0.042081363
43	0xbe21b24d	-0.15790673
44	0x3e8b8cd8	0.27255893
45	0x3ee37a58	0.44429278
46	0x3e1f2054	0.15539676
47	0x3c46e508	0.012139566
48	0xbe9a0960	-0.30085278
49	0x3ccdc961	0.025120439
50	0xbd4daea4	-0.05021538
51	0xbf2c972e	-0.6741818
52	0x3e037192	0.12836292
53	0xbe62610e	-0.22107336
54	0xbde9835d	-0.11402009
55	0xbeae243f	-0.3401203
56	0xbf10470c	-0.5635841
57	0x3daa5572	0.08317079
58	0x3d9ba0e7	0.07599049
59	0x3ea45609	0.3209689
60	0xbe11ab5c	-0.14225525
61	0x3eafab92	0.34310585
62	0x3dcdd4e9	0.10050375
63	0xbde115c9	-0.10990483
64	0x3e6d68f4	0.23184568
65	0xbca3827a	-0.019959677
66	0xbcae2cdd	-0.021261627
67	0xbe86ee63	-0.2635375
68	0x3f0d0cae	0.5509747
69	0x3dca07c7	0.09864765
70	0x3db96809	0.09053046
71	0x3e55e68f	0.20888732
72	0x3ea49d08	0.32151055
73	0x3e31052f	0.17287134
74	0x3e3baee2	0.18328431
75	0x3e42b179	0.19013013
76	0xbc24e1c2	-0.0100635905
77	0xbddd3dd0	-0.108028054
78	0xbc930d36	-0.017950635
79	0xbc9976c9	-0.018733399
80	0x3e07faed	0.13279314
81	0x3e4a48fd	0.19754405
82	0x3dcb7ca3	0.09935882
83	0x3f114b58	0.5675559
84	0x3f4c439f	0.7979068
85	0xbe08f352	-0.1337407
86	0xbd11338b	-0.035449546
87	0xbeaf9f53	-0.34301242
88	0xbe425229	-0.18976654
89	0xbdce4709	-0.10072143
90	0xbb3abb2e	-0.0028492915
91	0x3e1fccb1	0.15605427
92	0x3f2daf84	0.6784594
93	0xbe9cfa0b	-0.30659518
94	0xbd09fe93	-0.033690047
95	0x3f086be4	0.5328963
96	0xbf2fc119	-0.6865402
97	0xbd7bfca0	-0.06152022
98	0xbd19b322	-0.03752435
99	0xbb17bc2c	-0.002315293
100	0x3f092553	0.5357258
101	0x3d91558d	0.07096396
102	0x3d2014c3	0.0390823
103	0x3d6f718f	0.058457907
104	0x3e9121c1	0.28346065
105	0x3f0aaa4b	0.54166096
106	0x3e18ebf5	0.1493376
107	0x3da4e249	0.08050973
108	0xbf1f7042	-0.62280667
109	0xbd8a4a17	-0.06752413
110	0xbcd98910	-0.026554614
111	0xbc8097f2	-0.015697453

bias f4 [28]
0	0x3e80abc5	0.2513105
1	0x3fef08c9	1.8674556
2	0x3f80af7f	1.0053557
3	0xbeacc698	-0.33745265
4	0xbef7b982	-0.4838372
5	0xbdb565cf	-0.08857309
6	0x3f3d8a05	0.74038726
7	0x3eae606c	0.3405794
8	0xbf17ff49	-0.5937391
9	0xbdb5a366	-0.088690564
10	0xbf2aac26	-0.6666893
11	0x3e0ef05b	0.13958876
12	0x3f19fa44	0.601475
13	0x3f3ab6aa	0.72934973
14	0xbdf98535	-0.1218361
15	0x3eb318b1	0.34979776
16	0x3ef4ae0e	0.47789043
17	0x3f17d508	0.59309435
18	0x3d7d198c	0.06179194
19	0x3f0682bc	0.52543235
20	0xbef7eb25	-0.4842159
21	0xbe97c616	-0.29643315
22	0xbc2d1e9e	-0.010566382
23	0xbe3e8230	-0.1860435
24	0x3eee37ef	0.4652705
25	0xbe0b95c6	-0.13631353
26	0x3f062862	0.5240537
27	0xbd2e0fa3	-0.04249538
