flattened_code/models/rnn_spotify.pt (torch, 5411 bytes, 6 tensors)

weight_ih_l0 f8 [16, 4]
0	0xbfcafeda40000000	-0.21090248227119446
1	0xbfcb7f0780000000	-0.21481412649154663
2	0xbfc9491d00000000	-0.19754374027252197
3	0xbf97664e00000000	-0.02285119891166687
4	0xbfed36999b49d8f9	-0.9129150422075148
5	0xbfed59021af9dbea	-0.9171152617335541
6	0xbfebca7c6b435b2c	-0.8684675307257286
7	0xbfe387706b3aa923	-0.6102830976790624
8	0x3fa7da6900000000	0.04658821225166321
9	0xbfcc454c80000000	-0.22086483240127563
10	0x3f93be3c00000000	0.01928037405014038
11	0xbf68e44000000000	-0.0030385255813598633
12	0xbfe66295db8a8116	-0.6995343482886109
13	0xbfee71870b814c96	-0.9513583397587293
14	0xbfe49058fb89b007	-0.6426205551956635
15	0xbfefe1222b88b94f	-0.9962321138644173
16	0xbfe55d8dfd992a1a	-0.6676702454654475
17	0xbfe9a65fdb499da1	-0.801559379859942
18	0xbfeb126b0249cc9f	-0.8459982914631786
19	0xbfe5688a22ee8c06	-0.6690111810934247
20	0xbfe9c0653b9229dd	-0.804735771512522
21	0xbfec42100b91371a	-0.8830642915652078
22	0xbfe92e60ab921493	-0.7869113303173826
23	0xbfe6989d4b91fb6a	-0.7061296916943836
24	0xbfeba463db87254e	-0.8638171470312643
25	0xbfeef510fb7abb83	-0.9674153243739599
26	0xbfe36190db860513	-0.6056598937576915
27	0xbfef1d07fb8489f6	-0.9722938454108874
28	0xbfe7074e87632908	-0.719641937664421
29	0xbfe5e6ed17d3e595	-0.6844392266640847
30	0xbfdefeeceec8b1b2	-0.4843094188570617
31	0xbfe0d4f31b06fe68	-0.5259948280217488
32	0xbff0613455c7e2a4	-1.0237315512478427
33	0xbfea14f6cb8c3ebb	-0.8150590873283002
34	0xbfe29ba0cb8f769d	-0.5814975715436109
35	0xbfea221b5b8f1982	-0.816663435770167
36	0x3fa3f1e000000000	0.038954734802246094
37	0x3faf7cfa00000000	0.061500370502471924
38	0xbfa9519d00000000	-0.04945078492164612
39	0xbfccf65700000000	-0.22626769542694092
40	0xbfe3089bfb920722	-0.5948009408459465
41	0xbfecf0724b90eefc	-0.9043513751889516
42	0xbfe6df112b91eeb2	-0.7147298670747289
43	0xbff0c85545c8e8e0	-1.0489094472855456
44	0xbfc9e96b80000000	-0.2024359107017517
45	0x3f963c9600000000	0.021715492010116577
46	0xbfbaacec80000000	-0.10420110821723938
47	0x3fb89bc880000000	0.09612706303596497
48	0xbfe401938b918fb7	-0.6251924253415301
49	0xbfeef7412b8ff5fd	-0.967682442743978
50	0xbff0fa7915c8b5e1	-1.061150631994103
51	0xbfe410bdfb91414d	-0.6270437158037027
52	0xbfa646e000000000	-0.043509483337402344
53	0xbfc242d680000000	-0.14266473054885864
54	0x3f90fd6200000000	0.016591578722000122
55	0x3f93e6da00000000	0.01943531632423401
56	0xbfee1f84cb926a5d	-0.9413475013746609
57	0xbfe48cd83b91bcf3	-0.6421929515326198
58	0xbfe312c2bb925b2a	-0.5960401214132152
59	0xbfe912567b924921	-0.7834885037903271
60	0xbfe3c78ebcc70797	-0.6181100546893842
61	0xbfe14037c049f29a	-0.5390890842096099
62	0xbfe7395ac469b2fc	-0.7257512890042501
63	0xbfe7458cddbc0d2c	-0.7272400217774808

weight_hh_l0 f8 [16, 16]
0	0x3fce064300000000	0.2345660924911499
1	0xbfc3ff8f80000000	-0.15623658895492554
2	0xbfbfe72b00000000	-0.12462109327316284
3	0x3fcd84c740000000	0.230614572763443
4	0xbfbf764e80000000	-0.12289896607398987
5	0xbf651cf000000000	-0.002577275037765503
6	0x3fb955d700000000	0.09896606206893921
7	0x3fcfd8cf00000000	0.248803973197937
8	0xbf90738000000000	-0.016065597534179688
9	0xbfba1d6900000000	-0.10201126337051392
10	0x3fc1ed5e80000000	0.14005643129348755
11	0x3fc482c100000000	0.1602402925491333
12	0x3fc0d17dc0000000	0.131393164396286
13	0xbf94275400000000	-0.019681274890899658
14	0xbfbdf26100000000	-0.11697965860366821
15	0x3fbb59a500000000	0.10683661699295044
16	0xbf8a6bac00000000	-0.012900680303573608
17	0xbfc9044b00000000	-0.1954435110092163
18	0xbfcaea7580000000	-0.21028012037277222
19	0xbfc234de00000000	-0.14223837852478027
20	0x3fb7416180000000	0.0908413827419281
21	0xbfcbf78cc0000000	-0.21849212050437927
22	0xbfce2f5080000000	-0.23581892251968384
23	0xbfbdf33000000000	-0.11699199676513672
24	0xbfca971040000000	-0.2077350914478302
25	0x3fcaf122c0000000	0.2104838788509369
26	0x3fb896fa00000000	0.09605371952056885
27	0x3fc36ceec0000000	0.15176185965538025
28	0x3fc880cec0000000	0.19143089652061462
29	0xbfced81600000000	-0.24096941947937012
30	0xbfa06b7600000000	-0.0320698618888855
31	0xbf6a79c000000000	-0.0032318830490112305
32	0x3fc2403940000000	0.14258494973182678
33	0xbf956f9c00000000	-0.020933568477630615
34	0xbfce942ac0000000	-0.2388966977596283
35	0x3fa0468000000000	0.031787872314453125
36	0xbfa3501d00000000	-0.03772059082984924
37	0x3fc3196e00000000	0.14921355247497559
38	0x3fce118640000000	0.2349098026752472
39	0xbfc9fd9040000000	-0.2030506432056427
40	0x3fc8be8080000000	0.19331365823745728
41	0xbfbdb33280000000	-0.11601558327674866
42	0xbfc12521c0000000	-0.13394567370414734
43	0x3f8e9f8800000000	0.01495271921157837
44	0xbf94564800000000	-0.019860386848449707
45	0x3fc7058a80000000	0.17985659837722778
46	0xbfbfd5ea00000000	-0.12435781955718994
47	0x3fc8dfc500000000	0.1943289041519165
48	0x3f864e9000000000	0.010892033576965332
49	0xbfe5227f8fa25060	-0.6604612164833377
50	0x3fc4e05640000000	0.16309621930122375
51	0xbfe365e77ad4c031	-0.6061894797367186
52	0xbfed9b461b829ccb	-0.9252043282803241
53	0xbfef36371b7d8114	-0.9753680741232835
54	0xbfe41b2f2d9713c2	-0.6283183947021984
55	0xbfe2a4addb7c0f51	-0.5826024329003109
56	0xbfe478cc9b2311c3	-0.6397460012454349
57	0xbfc65f3dc0000000	-0.17478153109550476
58	0xbfeabe8e7b3f627b	-0.8357612998180025
59	0x3fa60a8400000000	0.043048977851867676
60	0xbff008f5dd584188	-1.002187599780969
61	0xbfb44eac00000000	-0.07932543754577637
62	0xbfefe94d0b725b84	-0.9972291205948385
63	0xbfee8f058b6dff3b	-0.9549586985813002
64	0x3f8f84c400000000	0.015389949083328247
65	0xbfec018e82bfb4f3	-0.875190024727685
66	0xbfaef3a100000000	-0.06045249104499817
67	0xbfef6c1dab0692d1	-0.9819477405877369
68	0xbff26f5f7ee66293	-1.15219068117418
69	0xbfebda0abb840cd3	-0.8703664457720158
70	0xbfe2dffa42e39dc0	-0.5898410135677565
71	0xbfe6fc8db8442dbe	-0.7183292960120793
72	0xbfecab587b460fa0	-0.8959162147225364
73	0xbf973ac600000000	-0.022685140371322632
74	0xbfe4123dab595bf9	-0.6272266718541452
75	0xbfcb5f6c80000000	-0.21384960412979126
76	0xbfe46a95aaeab766	-0.6380108202190342
77	0xbfcf2926c0000000	-0.2434433400630951
78	0xbfef6fa30b7c1eb4	-0.9823775505364751
79	0xbfeb6f7da2399ca4	-0.8573597114999711
80	0x3f95dc7000000000	0.02134871482849121
81	0xbfecff2ea8fce4fd	-0.906150178961212
82	0xbfc87d6800000000	-0.19132709503173828
83	0xbfe2fb80eb7e7a49	-0.5932011222356063
84	0xbfe2d395ab915f90	-0.5883282042441227
85	0xbfe619ec7b90f57c	-0.6906645215419043
86	0xbfe94162c983fa0d	-0.7892316757059362
87	0xbfed2df84b90b680	-0.9118615604290454
88	0xbfedb1004b879fdb	-0.9278565859976838
89	0x3f94427a00000000	0.0197848379611969
90	0xbfe35098bb8a49f4	-0.6035884535688738
91	0x3fb1d9cc80000000	0.06972959637641907
92	0xbfed84cc5b7b3145	-0.9224607264273251
93	0x3faaf66300000000	0.05266103148460388
94	0xbfe3b85d4b8fc9fd	-0.6162554241003019
95	0xbfe39231cb8f6324	-0.6115960098059969
96	0xbfb9079680000000	-0.0977720320224762
97	0xbfe7ab3139a9a09d	-0.7396474958632272
98	0x3f862a4000000000	0.010822772979736328
99	0xbfecd03e1b26b8c1	-0.900420239476965
100	0xbfe30e05cb7e632d	-0.5954617475973457
101	0xbff0ae0b5da10cfa	-1.0424913079630742
102	0x3fcab7e240000000	0.20873668789863586
103	0xbfee7ae5ab7064da	-0.9525020931643227
104	0xbfeecd2cfabf2d3e	-0.962545861949742
105	0xbfbb9c7d00000000	-0.10785657167434692
106	0xbff09be20d9b29a9	-1.0380573779571967
107	0x3fb868b800000000	0.09534788131713867
108	0xbfee7ba6fb199aa0	-0.9525942711159878
109	0x3fcc14d880000000	0.21938616037368774
110	0xbfe496a08b603baf	-0.6433871004281765
111	0xbfef42324b4d13ce	-0.976830622742108
112	0x3fb83dd880000000	0.09469369053840637
113	0x3fe7e168b91100ec	0.7462657560900232
114	0x3f9037b600000000	0.015837520360946655
115	0x3fe2c1a89b7cd6a1	0.5861399685733951
116	0xbfe553368f37da30	-0.6664078519086782
117	0x3fef994deb90c765	0.9874639130486967
118	0x3fe8ecfb1922b3fb	0.7789283266953356
119	0xbfe2fbd122f1c3df	-0.5932393724925723
120	0x3feea35d1b86b93d	0.957441858064875
121	0xbfbcf00400000000	-0.1130373477935791
122	0x3ff0072a45c4cfe3	1.001749298605312
123	0x3fc1ac5e00000000	0.13807272911071777
124	0x3fe379841b7935b3	0.6085835014907189
125	0xbfb4909b80000000	-0.08033153414726257
126	0x3ff05026adc7c21d	1.0195681370061103
127	0xbfe7be735649f053	-0.7419983563736515
128	0xbfce39c680000000	-0.23613816499710083
129	0xbfe30f98995c419c	-0.5956538195915075
130	0xbfc3ae4d80000000	-0.15375679731369019
131	0xbfeee3aa4b45dc9c	-0.9652911634610919
132	0xbfe8fe21cb8d09da	-0.781021974144376
133	0xbfe4ae58db8bc5f8	-0.6462826049811943
134	0xbfe4db55a5ba08f5	-0.6517742382859796
135	0xbfecec9a9b8ab026	-0.90388231639145
136	0xbfea2e59cb6a071d	-0.818158051770499
137	0x3f99dcd400000000	0.025256454944610596
138	0xbfee4d168b72fb5a	-0.9469101642242592
139	0x3fc3202d40000000	0.14941945672035217
140	0xbfefeed48b3a6452	-0.9979040831850716
141	0xbfb1233880000000	-0.06694367527961731
142	0xbfeaadc90b87799f	-0.8337140298061064
143	0xbfee8912fb8621e1	-0.9542326843812213
144	0x3fb75b1700000000	0.09123367071151733
145	0x3fc8ce7600000000	0.193800687789917
146	0xbfa40e5400000000	-0.039171814918518066
147	0x3fb8ff3100000000	0.0976439118385315
148	0x3fcc429800000000	0.22078227996826172
149	0xbfb9a1ab80000000	-0.10012313723564148
150	0x3fcb7de700000000	0.21477973461151123
151	0x3fabfdda00000000	0.05467110872268677
152	0x3fcb098dc0000000	0.21122905611991882
153	0x3fc56ada80000000	0.16732341051101685
154	0xbfb4788380000000	-0.07996389269828796
155	0x3fcfd421c0000000	0.24866124987602234
156	0xbfcd9af2c0000000	-0.23129114508628845
157	0xbfc19b1480000000	-0.1375451683998108
158	0x3f96c04400000000	0.02221781015396118
159	0x3fbe931f80000000	0.11943241953849792
160	0x3fa8c9c100000000	0.048414260149002075
161	0xbfe3b2e46639453b	-0.6155874249035728
162	0x3fa35a2600000000	0.03779715299606323
163	0xbfe5a94b3b7ac0d1	-0.676915756388576
164	0xbfee981b3b91204f	-0.9560676730552674
165	0xbfe2a49d9b90b1ff	-0.5825946844466329
166	0xbfed957de986fac3	-0.9244985161857006
167	0xbff0a48f05c82fd1	-1.0401754594667987
168	0xbfeb7b91eb85f491	-0.8588342285217029
169	0x3fb9094d80000000	0.09779819846153259
170	0xbff09c7925c47225	-1.03820147278669
171	0xbfcc73b840000000	-0.22228148579597473
172	0xbfe9b2eb3b770caa	-0.8030906831194404
173	0xbfc2496680000000	-0.14286500215530396
174	0xbfe3f237bb8f5584	-0.6233175910262365
175	0xbfee6adb3b8ee476	-0.9505439913983895
176	0xbfbf5eef80000000	-0.1225423514842987
177	0xbfc443aac0000000	-0.1583150327205658
178	0xbfb4898200000000	-0.0802232027053833
179	0xbfb5001700000000	-0.08203262090682983
180	0x3f92e99600000000	0.018469184637069702
181	0xbfb9793b00000000	-0.09950608015060425
182	0xbfc4690840000000	-0.1594553291797638
183	0xbfc32a5c40000000	-0.14973023533821106
184	0x3fbc6d1580000000	0.11103948950767517
185	0xbfb1755980000000	-0.0681968629360199
186	0x3faef0dc00000000	0.06043136119842529
187	0x3fcf96ef40000000	0.24679365754127502
188	0x3fadab4b00000000	0.05794748663902283
189	0x3f92b11600000000	0.01825365424156189
190	0x3fa1f31400000000	0.035057663917541504
191	0x3fbd5b0500000000	0.11467009782791138
192	0xbfca83e140000000	-0.2071496546268463
193	0xbff086d74b4cfc83	-1.032920164245099
194	0xbfcec8bd40000000	-0.24050107598304749
195	0xbfefbb84ab6e177b	-0.991640410255726
196	0xbfe713e55b901bd0	-0.7211787021959655
197	0xbff09ab6f5c7b2da	-1.0377721405777067
198	0xbfe63251a7890b27	-0.6936424514936775
199	0xbfe4edba1b8ef5a3	-0.6540194071055122
200	0xbff079e845bf91c5	-1.0297625278991387
201	0x3fb50a1080000000	0.0821848213672638
202	0xbfe9360a9b83bee4	-0.787846854915156
203	0x3fc5ca9cc0000000	0.17024573683738708
204	0xbfe97a689b680f41	-0.7961924586565844
205	0xbfcbb9b940000000	-0.21660533547401428
206	0xbfee469bcb8d53c4	-0.9461192107797776
207	0xbff139f93dc65024	-1.076653710658328
208	0x3fc46da100000000	0.15959560871124268
209	0x3f8031d000000000	0.007907509803771973
210	0x3fce0c7080000000	0.23475462198257446
211	0x3fb00f5480000000	0.06273391842842102
212	0xbfca2cc780000000	-0.20449155569076538
213	0xbfb512cf80000000	-0.0823182761669159
214	0xbfb2547000000000	-0.07160091400146484
215	0xbfbaa7da00000000	-0.10412371158599854
216	0x3fc9fa0000000000	0.20294189453125
217	0xbfbb35ad00000000	-0.10628777742385864
218	0xbfc0a4c200000000	-0.13002800941467285
219	0xbfb40bd280000000	-0.07830539345741272
220	0x3fcaf3b900000000	0.2105628252029419
221	0x3fba521580000000	0.10281500220298767
222	0xbfb4435300000000	-0.07915228605270386
223	0xbf2fe70000000000	-0.00024339556694030762
224	0x3fc49d3940000000	0.16104808449745178
225	0xbfe8336209eb4590	-0.7562723344546374
226	0xbfbcd05600000000	-0.11255395412445068
227	0xbff0a6c8f5c1da6f	-1.0407189941303405
228	0xbfe5a7116b91cb3d	-0.6766440487830107
229	0xbfed18bfab917934	-0.909271082967996
230	0xbfee80f929d322c6	-0.9532438103570591
231	0xbfed754edb914cf0	-0.9205698288373281
232	0xbfe4d7999b8a871c	-0.6513183629906254
233	0x3f618d5000000000	0.002142578363418579
234	0xbfeed35f2b8c8a95	-0.9633022165838435
235	0xbfb79f0400000000	-0.0922701358795166
236	0xbfe45f3f8b812df5	-0.6366269802760472
237	0x3fc0ebc900000000	0.1321955919265747
238	0xbfe74f953b9099ea	-0.7284647143722485
239	0xbfeb7c114b904bad	-0.8588949657299644
240	0x3fafce7d00000000	0.06212225556373596
241	0x3feccf051855f4a2	0.9002709842021839
242	0x3fa57eb000000000	0.041982173919677734
243	0x3fecf208cb7d13ac	0.9045452093492847
244	0xbfcfa7714f887de6	-0.24729744323211306
245	0x3fef328dbb90dc18	0.9749210990329429
246	0x3fe7b82c897bc26c	0.741232174417815
247	0xbfeb988e45f1b3d2	-0.8623725286575967
248	0x3ff05fd835c3825e	1.0233995533127636
249	0x3fbadd0c80000000	0.10493543744087219
250	0x3ff1389d95c4e503	1.0763221598011234
251	0xbfad9c6c00000000	-0.05783402919769287
252	0x3ff0e75355bccf7b	1.056475958740491
253	0xbfa600fb00000000	-0.04297623038291931
254	0x3fe689dc1b8f9e7b	0.7043285883236899
255	0xbfeb96b1313b2703	-0.8621450387520045

bias_ih_l0 f8 [16]
0	0x3fc274b800000000	0.14418697357177734
1	0xbfebcc628b160fed	-0.8686993328597034
2	0x3fb80b6900000000	0.09392410516738892
3	0xbfee4def87d1e14f	-0.9470136311274845
4	0xbff1c478d78f3ab7	-1.1104668064396443
5	0xbfe45aa69b304a6c	-0.636065772154621
6	0xbfe741ba96534c28	-0.7267735420267671
7	0xbfe394e17e574664	-0.6119239299388934
8	0xbfea9b10fa241539	-0.8314289937558562
9	0x3f9a6c7e00000000	0.025804489850997925
10	0xbfe9324cbb2123de	-0.7873901038047924
11	0xbfc00648c0000000	-0.12519177794456482
12	0xbff03fc4357642b6	-1.0155679787023195
13	0x3fb289cf00000000	0.072415292263031
14	0xbfed585e1b4c8533	-0.9170370610410487
15	0xbfe49d25f9e1bf91	-0.6441831474785308

bias_hh_l0 f8 [16]
0	0xbfc5f6f080000000	-0.17159849405288696
1	0xbfe9589a3b160fec	-0.7920657304789507
2	0x3fcdaa9800000000	0.23176860809326172
3	0xbfe634d0c7d1e14f	-0.6939472105723697
4	0xbfe79e7f5f1e757a	-0.7380978448669986
5	0xbfe9add92b304a6a	-0.8024717181709324
6	0xbfe89dce36534c28	-0.7692633687059969
7	0xbfea9da76e574665	-0.8317448763938954
8	0xbfe6ca868a241539	-0.7122223566117675
9	0xbfcbf1d300000000	-0.21831738948822021
10	0xbfe7887aab2123de	-0.7354100553867473
11	0x3fbd1b2c80000000	0.11369588971138
12	0xbfe2bc7cdaec8571	-0.5855087543351783
13	0x3fc80b3c80000000	0.18784290552139282
14	0xbfebf0203b4c8533	-0.8730622442418848
15	0xbfe6d85919e1bf91	-0.7139096742157439

weight f8 [1, 16]
0	0x3fb7bc6500000000	0.09271842241287231
1	0xbfeb8b3356fb3296	-0.8607422541477543
2	0x3fcd68d5c0000000	0.22976180911064148
3	0xbfeaa7fdbb8ec3d9	-0.8330067313419206
4	0x3fd1886c11980a4e	0.27395154684214595
5	0xbfe443193b92af18	-0.6331907428297852
6	0xbfe313b60aff5db6	-0.5961561407847771
7	0x3fe2497d306df82b	0.5714708276643753
8	0xbfe76ad55b911474	-0.731791189996001
9	0x3fcf3011c0000000	0.24365445971488953
10	0xbfe2ce74bb917fa7	-0.5877021468586364
11	0x3fc02fbe40000000	0.12645700573921204
12	0xbfe82c69eb8df106	-0.7554216004059817
13	0x3f97c09600000000	0.023195594549179077
14	0xbfe4fc4d8b9276f9	-0.6557986951845286
15	0x3fde71d00a5f79f6	0.47569657338127

bias f8 [1]
0	0x3fe4a64fb5c2f547	0.645301680567777
