flattened_code/models/rnn_spotify.pt (torch, 5411 bytes, 6 tensors)

weight_ih_l0 f8 [16, 4]
-0.8001521743329302 -0.6387000001432331 -0.7238869882612763 -0.6078756369139908 -0.8248901880678773 -0.8762375629708239 -0.6194882608340092 -0.7044432676704542
-0.17883533239364624 -0.16617488861083984 0.030043989419937134 0.02194693684577942 -0.005983620882034302 -0.11120602488517761 -0.24865543842315674 0.22388789057731628
-0.6526722294901214 -0.4652943095527704 -0.5938127658106925 -0.5198128803090665 -0.22110873460769653 0.20041415095329285 -0.23257982730865479 0.08769461512565613
-0.693359903190407 -0.7538761115919665 -0.6293639160127634 -0.7817384816131896 -0.7679822362348002 -0.78615551359833 -0.6333574868114719 -0.8057546533004915
-0.14090397953987122 -0.1297043263912201 0.07373586297035217 -0.18672215938568115 -0.6881299004780294 -0.6528083337276476 -0.5095464335810947 -0.6641885698429741
-0.6200014102032261 -0.6611962869764079 -0.5922678736911866 -0.4425386517127786 0.07595399022102356 0.027231812477111816 -0.1672375202178955 -0.18593040108680725
-0.7565500066166695 -1.1066669533404865 -0.7337438666477512 -0.7730609873085579 -0.8070443786181831 -0.7484719670786549 -0.6001986480748445 -0.9115808523687998
-0.7604076779838593 -0.8216738618301824 -0.7261535144796253 -0.7142386055929464 -0.798803597145764 -0.44291121944001355 -0.8014701791853086 -0.5414775966664921
00000000: c9a9 92bb d89a e9bf 9140 92fb 3a70 e4bf
00000010: b5a0 920b 152a e7bf 9895 929b b773 e3bf
00000020: cd5e 911b 8065 eabf d490 8f5b 230a ecbf
00000030: 3137 910b d9d2 e3bf f005 919b cc8a e6bf
00000040: 0000 0080 13e4 c6bf 0000 0000 3845 c5bf
00000050: 0000 0000 dac3 9e3f 0000 0000 4279 963f
00000060: 0000 0000 4882 78bf 0000 0080 ff77 bcbf
00000070: 0000 0000 f1d3 cfbf 0000 00c0 5ba8 cc3f
00000080: fb5b 15df b0e2 e4bf b4d1 a2c8 61c7 ddbf
00000090: dd55 23a1 8300 e3bf b0f1 1e9f 4ea2 e0bf
000000a0: 0000 0080 4a4d ccbf 0000 00c0 2ba7 c93f
000000b0: 0000 0000 2dc5 cdbf 0000 0080 2773 b63f
000000c0: d0ef 911b 0130 e6bf 96bd 90cb c01f e8bf
000000d0: 7bd5 91cb bf23 e4bf 04b5 916b 0004 e9bf
000000e0: 7d32 917b 4f93 e8bf 7832 8f9b 2f28 e9bf
000000f0: 5506 91eb 7644 e4bf 51d0 90fb bdc8 e9bf
00000100: 0000 0040 2409 c2bf 0000 00c0 269a c0bf
00000110: 0000 0080 5ae0 b23f 0000 0000 83e6 c7bf
00000120: eb7d 3eff 2805 e6bf f853 7d4d cee3 e4bf
00000130: 8fc6 8052 344e e0bf 6248 3b63 0841 e5bf
00000140: de7e 8932 0dd7 e3bf 149c 991d 8528 e5bf
00000150: 1034 7fc1 dbf3 e2bf dea0 14a3 8d52 dcbf
00000160: 0000 0080 b871 b33f 0000 0000 a8e2 9b3f
00000170: 0000 0000 0a68 c5bf 0000 0040 91cc c7bf
00000180: 36a1 065c a835 e8bf e194 4268 e8b4 f1bf
00000190: ce90 dc6a d47a e7bf 22b8 4965 eabc e8bf
000001a0: 5ebe 92bb 4ed3 e9bf 696b 927b 7bf3 e7bf
000001b0: 42b7 92cb d334 e3bf 7cae 929b ab2b edbf
000001c0: da2c 927b 4255 e8bf ac3c 91fb 264b eabf
000001d0: 3118 924b a63c e7bf c0fe 91eb 0adb e6bf
000001e0: 0562 b58f cc8f e9bf 84af a14c a858 dcbf
000001f0: c13e 0aca a4a5 e9bf 5b60 26d3 c853 e1bf

weight_hh_l0 f8 [16, 16]
-0.7735855198878344 -0.9767075694509058 -0.21164265275001526 0.22964909672737122 -0.972110531402462 -0.11180758476257324 -0.8833992696715004 -0.6506759739889868
0.14902421832084656 -0.8271786189939414 -0.7463662243836552 0.010131120681762695 -0.5890731729036509 -0.7568005836865535 -0.6736634887175423 -0.9571037507645623
-1.0209581769348026 -1.0222058213284029 0.006835460662841797 0.11859557032585144 -0.8406792795330739 0.0005520284175872803 -1.054919830615005 -0.6998019731862664
-0.1605466902256012 -0.7471963084092332 -0.6901819921268241 -0.23056668043136597 -0.9112917102165128 -0.597376695903872 -0.588951907214673 -0.9213163172400257
0.0760381817817688 -0.1448778510093689 -0.23314335942268372 -0.1436895728111267 -0.0871557891368866 -0.042059749364852905 0.11842140555381775 -0.17146462202072144
0.04787653684616089 -0.218105286359787 0.08927735686302185 -0.19045951962471008 0.24297302961349487 -0.16055089235305786 -0.15902084112167358 -0.23092401027679443
-0.13141688704490662 -0.02472713589668274 -0.12378314137458801 0.07117035984992981 0.0466005802154541 0.010529011487960815 -0.03624966740608215 0.12631314992904663
-0.21220672130584717 0.08177587389945984 0.08301129937171936 0.1309325098991394 -0.19926154613494873 0.22828957438468933 -0.008429199457168579 -0.15520742535591125
0.6037281073113936 0.5908097244216837 0.05532151460647583 0.09609997272491455 -0.8944515023031632 0.10037961602210999 1.0345296181160446 0.6225847817437623
0.048486918210983276 -0.6744558525100091 -0.6645991769415788 0.2496536374092102 -0.3048077180957781 0.7444864130884294 0.8217997766457381 -0.5247181982521595
-0.22473934292793274 0.02457749843597412 -0.23968902230262756 -0.11278393864631653 -0.17403730750083923 0.21397101879119873 -0.0057856738567352295 -0.07788753509521484
0.18764957785606384 0.14919427037239075 -0.1031898558139801 0.11612287163734436 0.16756463050842285 -0.026852309703826904 -0.09750369191169739 0.20911332964897156
-0.7666531718671855 -0.8512741840576705 -0.14917239546775818 0.05147111415863037 -0.7447772538813252 0.05470818281173706 -1.0689007855165105 -0.9746554709363751
-0.22343027591705322 -0.6570909536456423 -1.0696912623275214 0.10680481791496277 -0.7784770644570267 -0.706365606840554 -0.8387170947315427 -0.8789181029596145
-0.7457583165979893 -1.013139627026774 -0.21001920104026794 0.08403965830802917 -0.5932185864073247 -0.08625543117523193 -0.648081949998756 -0.6314844108418728
-0.019249558448791504 -0.7370352661874962 -0.9622850335334467 -0.12813830375671387 -0.6187581337249286 -0.6562622702365827 -0.6690537548577399 -0.844545147311183
0.17128399014472961 -0.1370094120502472 0.06125378608703613 0.15429294109344482 0.2491556704044342 -0.2004164457321167 -0.05102220177650452 0.01340395212173462
0.2351803183555603 -0.18240511417388916 0.04806956648826599 -0.13038301467895508 -0.07134786248207092 0.2055247724056244 0.21936878561973572 -0.11855912208557129
0.9087778843338736 1.0251601255610867 0.02818918228149414 0.01594001054763794 -0.7373684918911032 -0.08554962277412415 0.6206886685572939 0.9986239887161553
0.22546696662902832 -0.8513581238742524 -0.8181463495908774 -0.07564213871955872 -0.6624450450705749 0.712431541734143 1.023141048024664 -0.8339662196599034
0.8614839828990174 0.7384986794907499 -0.21270844340324402 -0.2495332658290863 -0.7534749228510055 0.15378102660179138 0.799584618898551 0.9539963520545293
-0.006578892469406128 -0.8858985249648085 -0.39915886685382596 0.06905019283294678 -0.6289947083095958 0.8435825324929473 1.047985426279572 -0.4035501548561182
-0.13079363107681274 -0.011932700872421265 -0.167662113904953 -0.20214346051216125 -0.11783826351165771 0.14420804381370544 -0.19749125838279724 -0.12764489650726318
-0.22381654381752014 -0.13638585805892944 -0.1571781039237976 -0.2430090308189392 0.14100521802902222 0.10846376419067383 -0.19246363639831543 0.010031670331954956
-0.7204265511801979 -0.9601587570074541 0.10657089948654175 -0.17966359853744507 -0.7364154654155838 -0.18535116314888 -0.7310213661596016 -1.080118022039102
0.17195722460746765 -0.6676318719715865 -0.6661520691233633 0.12079796195030212 -0.7879139823868401 -0.7339362120719753 -0.7072980618884748 -0.8483785770215461
-0.7616666174915672 -0.8782395339937797 0.23765447735786438 0.15746867656707764 -1.048885337192785 -0.20188266038894653 -0.7502658582663081 -0.9270567513489728
0.2080368995666504 -0.6512635863720321 -1.0713227904804279 -0.196852445602417 -0.6407115973013187 -1.0563715613777718 -0.8618709660509077 -0.5925254739011573
-0.7047470129455521 -0.8955264604850457 0.15546485781669617 -0.09974834322929382 -0.8879444814069722 -0.23007628321647644 -0.9320948339277842 -0.9281516886667486
-0.005696386098861694 -0.721698126859331 -0.6908855355648924 0.20241308212280273 -0.7834571219381918 -0.8885387695489005 -1.0774751520936274 -0.7080790615131152
1.0119649089354545 1.0237608469434196 0.03839045763015747 -0.1699589490890503 -0.5963062928407796 -0.09484055638313293 0.7852536357355595 0.7161628819479712
0.11358198523521423 -0.6205141056314385 -0.6027271856872919 -0.06991562247276306 -0.4830264557837529 0.675419173326203 0.7369308389143738 -0.6106506107111327
00000000: 1d7a 926b 36c1 e8bf 6483 913b 3041 efbf
00000010: 0000 0040 1b17 cbbf 0000 0040 2465 cd3f
00000020: 6d10 8f8b 871b efbf 0000 0000 6c9f bcbf
00000030: 8394 918b ce44 ecbf af6b 926b 56d2 e4bf
00000040: 0000 00c0 3913 c33f 08f1 904b 3f78 eabf
00000050: 3323 926b 3be2 e7bf 0000 0000 a0bf 843f
00000060: ec4e 92fb afd9 e2bf f0e0 90db b537 e8bf
00000070: b0a2 91bb a68e e5bf 1635 8d0b 98a0 eebf
00000080: d64c c83d d855 f0bf 532e c67d f45a f0bf
00000090: 0000 0000 80ff 7b3f 0000 0080 475c be3f
000000a0: e19e 803b d8e6 eabf 0000 0000 c016 423f
000000b0: fb4a c69d f3e0 f0bf 6e5c 901b c764 e6bf
000000c0: 0000 0040 cb8c c4bf 22e8 893b 08e9 e7bf
000000d0: 7f21 8f8b f815 e6bf 0000 0080 3583 cdbf
000000e0: dadd 8f3b 4d29 edbf e096 89bb b51d e3bf
000000f0: 51ec 8cab b1d8 e2bf 7325 7a5b 6c7b edbf
00000100: 0000 0000 3d77 b33f 0000 0080 5b8b c2bf
00000110: 0000 0040 a4d7 cdbf 0000 0080 6b64 c2bf
00000120: 0000 0080 d74f b6bf 0000 0000 db88 a5bf
00000130: 0000 0080 dd50 be3f 0000 0080 8df2 c5bf
00000140: 0000 0000 4683 a83f 0000 00c0 dfea cbbf
00000150: 0000 0080 e1da b63f 0000 0040 fa60 c8bf
00000160: 0000 0080 bd19 cf3f 0000 0080 ee8c c4bf
00000170: 0000 0080 cb5a c4bf 0000 0000 eb8e cdbf
00000180: 0000 00c0 44d2 c0bf 0000 0000 1252 99bf
00000190: 0000 0080 40b0 bfbf 0000 0080 3838 b23f
000001a0: 0000 0000 08dc a73f 0000 0000 3c90 853f
000001b0: 0000 0000 518f a2bf 0000 0080 072b c03f
000001c0: 0000 0000 9729 cbbf 0000 0080 43ef b43f
000001d0: 0000 0080 3a40 b53f 0000 0080 65c2 c03f
000001e0: 0000 0000 6781 c9bf 0000 00c0 9738 cd3f
000001f0: 0000 0000 5443 81bf 0000 0040 d6dd c3bf
00000200: 5e82 929b bd51 e33f d098 91cb e9e7 e23f
00000210: 0000 0000 1a53 ac3f 0000 0000 029a b83f
00000220: 4401 c8c1 589f ecbf 0000 0080 7ab2 b93f
00000230: 18d4 c8ed 6e8d f03f cb74 92eb 36ec e33f
00000240: 0000 0000 47d3 a83f 8e0a a470 2495 e5bf
00000250: 0134 3d7e 6544 e5bf 0000 0080 a6f4 cf3f
00000260: 568b 323b f881 d3bf 30ff 902b d5d2 e73f
00000270: aeb6 910b 2f4c ea3f 7f7d a3d1 7dca e0bf
00000280: 0000 0040 42c4 ccbf 0000 0000 d82a 993f
00000290: 0000 0040 21ae cebf 0000 0080 68df bcbf
000002a0: 0000 00c0 da46 c6bf 0000 0000 6763 cb3f
000002b0: 0000 0000 b8b2 77bf 0000 0000 70f0 b3bf
000002c0: 0000 00c0 e604 c83f 0000 0040 cc18 c33f
000002d0: 0000 0080 a66a babf 0000 0080 3aba bd3f
000002e0: 0000 0000 c272 c53f 0000 0000 2c7f 9bbf
000002f0: 0000 0080 00f6 b8bf 0000 00c0 39c4 ca3f
00000300: 536a 913b 6c88 e8bf f09d 8e5b a33d ebbf
00000310: 0000 00c0 1418 c3bf 0000 0000 6c5a aa3f
00000320: 0b33 871b 37d5 e7bf 0000 0000 b602 ac3f
00000330: db64 c7b5 371a f1bf 3441 91ab 6030 efbf
00000340: 0000 0000 5d99 ccbf bdf9 8c9b e306 e5bf
00000350: f537 c895 741d f1bf 0000 0080 8f57 bb3f
00000360: aeed 90bb 48e9 e8bf abc7 8c0b 8c9a e6bf
00000370: c1fa 8e3b c5d6 eabf 6e5d 82db 1820 ecbf
00000380: a244 908b 40dd e7bf 3fc9 c5e5 d135 f0bf
00000390: 0000 00c0 e8e1 cabf 0000 0080 9f83 b53f
000003a0: 40f6 7f8b a5fb e2bf 0000 0000 d614 b6bf
000003b0: 0cec 8b5b 16bd e4bf 4ffd 8fcb 1e35 e4bf
000003c0: 0000 0000 28b6 93bf 34c4 88fb ca95 e7bf
000003d0: f89a 8efb 09cb eebf 0000 0000 d666 c0bf
000003e0: 2871 8fdb ddcc e3bf 8b79 88bb 1900 e5bf
000003f0: e928 8c6b e368 e5bf 194e 768b 8306 ebbf
00000400: 0000 0040 a2ec c53f 0000 0040 8689 c1bf
00000410: 0000 0000 a85c af3f 0000 0000 dfbf c33f
00000420: 0000 0040 55e4 cf3f 0000 0000 3fa7 c9bf
00000430: 0000 0000 951f aabf 0000 0000 8873 8b3f
00000440: 0000 0080 631a ce3f 0000 0000 0d59 c7bf
00000450: 0000 0000 939c a83f 0000 0000 64b0 c0bf
00000460: 0000 0080 da43 b2bf 0000 00c0 a24e ca3f
00000470: 0000 00c0 4614 cc3f 0000 0000 e459 bebf
00000480: 8a58 915b b514 ed3f 812b c74d 0e67 f03f
00000490: 0000 0000 a0dd 9c3f 0000 0000 9452 903f
000004a0: 7abd b8ce 8598 e7bf 0000 0080 94e6 b5bf
000004b0: 8c71 8e7b aedc e33f c72e 914b baf4 ef3f
000004c0: 0000 0000 1adc cc3f 9f29 6764 533e ebbf
000004d0: 0eb5 da40 412e eabf 0000 0080 485d b3bf
000004e0: 3136 7ff3 bf32 e5bf 5562 8c3b 3dcc e63f
000004f0: a860 c725 c95e f03f a40e edec d9af eabf
00000500: 0388 92db 4691 eb3f a1a9 91fb c7a1 e73f
00000510: 0000 00c0 073a cbbf 0000 00c0 b4f0 cfbf
00000520: c309 0071 771c e8bf 0000 00c0 18af c33f
00000530: 8db9 917b 3296 e93f ed7a 925b 2387 ee3f
00000540: 0000 0000 78f2 7abf 3f8d 09dd 4759 ecbf
00000550: 20eb c2a1 d18b d9bf 0000 0000 46ad b13f
00000560: 2b7f b182 b920 e4bf 1217 91cb a0fe ea3f
00000570: d7e2 c85d 8cc4 f03f e0c6 5907 c4d3 d9bf
00000580: 0000 0080 d8bd c0bf 0000 0000 2c70 88bf
00000590: 0000 00c0 f375 c5bf 0000 0040 d6df c9bf
000005a0: 0000 0000 a62a bebf 0000 00c0 6875 c23f
000005b0: 0000 00c0 6447 c9bf 0000 0000 ab56 c0bf
000005c0: 0000 0040 05a6 ccbf 0000 0080 1775 c1bf
000005d0: 0000 0080 691e c4bf 0000 0080 eb1a cfbf
000005e0: 0000 0080 750c c23f 0000 0000 48c4 bb3f
000005f0: 0000 0000 a6a2 c8bf 0000 0000 7c8b 843f
00000600: 0ea6 8ffb bb0d e7bf b214 8adb 9eb9 eebf
00000610: 0000 0000 3b48 bb3f 0000 0080 37ff c6bf
00000620: 4b50 872a b790 e7bf 0000 0040 96b9 c7bf
00000630: b9a5 8aeb 8664 e7bf 81a6 c7d5 2948 f1bf
00000640: 0000 00c0 b102 c63f bf53 fc83 3d5d e5bf
00000650: c085 e124 1e51 e5bf 0000 0080 9dec be3f
00000660: 0134 4d62 9736 e9bf 4b60 86cb 677c e7bf
00000670: d2b9 8a8b 2fa2 e6bf e5e7 5dd4 ea25 ebbf
00000680: 6099 92ab 925f e8bf 91d7 91cb 891a ecbf
00000690: 0000 0040 766b ce3f 0000 0000 ef27 c43f
000006a0: 7cf3 c7fd 3bc8 f0bf 0000 0080 4ad7 c9bf
000006b0: ade4 918b 2d02 e8bf 118e 92eb 72aa edbf
000006c0: 0000 0000 f4a0 ca3f c164 91bb 26d7 e4bf
000006d0: 972a c95d 2324 f1bf 0000 0000 7632 c9bf
000006e0: 7c77 929b b580 e4bf faab c8dd e5e6 f0bf
000006f0: 3bf0 916b 7294 ebbf d579 8efb f7f5 e2bf
00000700: 35c1 919b 498d e6bf 8e8c 8f1b 27a8 ecbf
00000710: 0000 00c0 45e6 c33f 0000 0080 1b89 b9bf
00000720: e1cf 898b 0a6a ecbf 0000 00c0 2373 cdbf
00000730: 3bb1 8f8b b8d3 edbf a3a0 912b 6bb3 edbf
00000740: 0000 0000 1855 77bf c83f 8eab 2618 e7bf
00000750: 26fb 90fb bb1b e6bf 0000 0000 ace8 c93f
00000760: c45e 91ab 1412 e9bf 7719 8edb e86e ecbf
00000770: 85ea c795 563d f1bf 68cc 856b 95a8 e6bf
00000780: 033d c91d 0231 f03f 88c1 c80d 5361 f03f
00000790: 0000 0000 eaa7 a33f 0000 0000 37c1 c5bf
000007a0: 02ce 44ef f014 e3bf 0000 0080 7847 b8bf
000007b0: 1294 913b cc20 e93f af6b 926b ceea e63f
000007c0: 0000 0080 b513 bd3f 5699 cc65 40db e3bf
000007d0: 37fc dd85 8a49 e3bf 0000 0080 fde5 b1bf
000007e0: a46a accb e7e9 debf 71e0 90ab 089d e53f
000007f0: 72a2 91fb ef94 e73f fe2c 4926 738a e3bf

bias_ih_l0 f8 [16]
-0.6180308673673215 -0.9464909636246666 -0.23539301753044128 -0.06692823767662048 -0.45241396709237863 -0.1760033667087555 -1.0352623967244365 -0.9066664777008586
-0.15038415789604187 -0.6094330267061572 -0.5767557232175359 -0.02776205539703369 -0.8255452441446464 -0.6262832795138723 -0.6278041511653174 -0.7801328316149423
00000000: 6b5b 68ab e8c6 e3bf 6c47 d76a a749 eebf
00000010: 0000 00c0 5b21 cebf 0000 0080 3522 b1bf
00000020: b195 3ab6 59f4 dcbf 0000 0040 4787 c6bf
00000030: 4b5c 8b4d 6f90 f0bf b659 c36a 6903 edbf
00000040: 0000 00c0 c93f c3bf 86c4 d9b0 7980 e3bf
00000050: 2f01 206b c874 e2bf 0000 0000 a86d 9cbf
00000060: e506 1fdc dd6a eabf 0f66 713b 830a e4bf
00000070: dc89 31bb f816 e4bf 404e ca20 d9f6 e8bf

bias_hh_l0 f8 [16]
-0.9328305337720456 -1.0706315242516498 -0.1127852201461792 -0.18524089455604553 -0.7780994085863667 -0.13350674510002136 -1.0688956288411353 -0.623572309991508
-0.13689649105072021 -0.621372224484859 -0.761819383362342 0.06705015897750854 -0.7432934867612998 -0.8179231797213918 -0.7984681933997383 -0.7362294509825418
00000000: 6b5b 686b bfd9 edbf b4a3 6b85 4e21 f1bf
00000010: 0000 0000 7edf bcbf 0000 0040 f9b5 c7bf
00000020: d94a 1dbb 30e6 e8bf 0000 00c0 bf16 c1bf
00000030: 495c 8b4d 321a f1bf b659 c3ea 4df4 e3bf
00000040: 0000 0000 d385 c1bf 86c4 d900 48e2 e3bf
00000050: 3101 200b d360 e8bf 0000 0000 332a b13f
00000060: e506 1f6c 0fc9 e7bf 0f66 713b 6d2c eabf
00000070: dd89 312b 0d8d e9bf 404e ca10 318f e7bf

weight f8 [1, 16]
-0.6647008575013698 -0.7331957734621591 0.22145867347717285 -0.01874333620071411 0.4486848498406323 -0.005013197660446167 -0.730042181114134 -0.815181455712574
0.03955933451652527 0.4339603039949424 0.5177231364790218 0.220310777425766 0.2748320343566144 -0.6015297390011647 -0.7218455589809957 0.46714570412019496
00000000: e4ed 92bb 3a45 e5bf 95bb 92fb 5676 e7bf
00000010: 0000 0000 c258 cc3f 0000 0000 7431 93bf
00000020: 0aad 11a9 40b7 dc3f 0000 0000 b888 74bf
00000030: 2cbe 926b 815c e7bf eeea 926b f715 eabf
00000040: 0000 0000 1f41 a43f 67e9 5a70 01c6 db3f
00000050: 0eeb 711c 3091 e03f 0000 00c0 2433 cc3f
00000060: 901b dd19 d996 d13f fa9a 924b bb3f e3bf
00000070: 47c2 92db 5b19 e7bf b870 6a18 b7e5 dd3f

bias f8 [1]
0.5946451035268686
00000000: 5ffb 0b2b 5507 e33f
