models/autoencoder_spotify.pt (torch, 3871 bytes, 4 tensors)

weight f4 [4, 28]
000000 54 f4 97 3e a0 ae 2b 3d 95 8b 51 3e 53 26 ee 3d
       0.29678595 0.041914582 0.20463403 0.116284035
000010 34 d3 75 3e 33 cd 97 3e 7e 28 1b bd 48 9b 91 3e
       0.24006349 0.29648742 -0.037880413 0.28438783
000020 76 5b 6f 3e 2a 19 bc 3e ad 18 1d 3e 05 c6 af 3d
       0.23374733 0.3673795 0.15341444 0.08582691
000030 96 86 9a 3e cf 8f 19 be 5f 56 8a 3e a5 52 95 3e
       0.30180806 -0.14996265 0.2701902 0.29164615
000040 58 94 6e 3e bf 53 2b 3c 6e 1a 19 3d 0e 67 96 3c
       0.23298776 0.010456978 0.03737872 0.018359687
000050 12 3d a0 bd e4 29 48 3e 77 e7 fb 3c c1 7f 60 be
       -0.07824148 0.1954723 0.03075002 -0.21923734
000060 f6 f6 29 3d ea 92 db bb 64 e4 87 be 8c 48 9f be
       0.041495286 -0.006700863 -0.26541436 -0.31110036
000070 aa 69 59 be 25 59 a6 be c0 4f b0 be 20 41 7d be
       -0.21231714 -0.32489887 -0.34435844 -0.24731874
000080 2e bc 0b be d0 45 d0 3c 5e 48 2e be 05 72 db bd
       -0.13646004 0.025423914 -0.17019793 -0.10715107
000090 1c a4 13 be c2 41 63 be bd 0e bd be 4f cd 5f be
       -0.14418072 -0.22193053 -0.36925307 -0.21855663
0000a0 d8 31 2a be ed 18 8b 3e b4 cc 36 be e3 b3 98 be
       -0.16620576 0.27167454 -0.17851526 -0.29824743
0000b0 c7 da aa 3b 13 6f b7 be cb 83 08 be da f0 8e be
       0.0052140686 -0.3582693 -0.13331525 -0.2791813
0000c0 e3 8e ec 3d 23 8e 66 be 1c 28 03 be b5 09 d4 3e
       0.11550691 -0.22515158 -0.1280827 0.41413656
0000d0 e7 a5 1e be 49 f5 88 bd f1 d6 03 3c ed 5a f3 bc
       -0.15492974 -0.066874094 0.0080468515 -0.029706443
0000e0 ce 9f de 3d 8a 45 80 3e 8d 1b 1c 3b 16 45 8d 3c
       0.10870324 0.25053054 0.0023820132 0.017244857
0000f0 a6 6a 0e 3e 69 95 fa bc 4f a7 1b 3e 8f 57 52 3c
       0.1390787 -0.030588822 0.15200542 0.012838258
000100 52 57 7f 3d 39 05 f6 ba cc 5b 03 be 0b 3b 4e bd
       0.062339135 -0.0018769867 -0.12827986 -0.050349277
000110 f2 a5 be 3d b9 e2 5c bd 75 89 3a 3e 17 4b 10 3e
       0.09308995 -0.053927157 0.18216498 0.14091145
000120 8a ff 7a 3d 2e 2e 03 3e 2e 63 f2 bc 5c de 0e 3e
       0.061278857 0.12810585 -0.029588308 0.13952011
000130 b4 42 b4 bd d2 d3 f7 ba 44 83 06 3d 30 4b da be
       -0.08801785 -0.0018907732 0.03284003 -0.4263549
000140 31 e5 22 3e 9f 01 c2 3e dd 07 8e bd 1a 14 90 be
       0.15907742 0.37891862 -0.069350936 -0.28140336
000150 23 16 b7 be 84 62 f3 be ef bf 93 be a3 b4 b2 be
       -0.35759076 -0.475361 -0.2885737 -0.3490344
000160 d3 dc b1 be 9d 01 c9 be 9c 81 88 be 05 7a 49 be
       -0.34738788 -0.39259043 -0.26661384 -0.19675453
000170 ef 16 04 bf 53 2c 07 bf dc ef 1e bf e3 57 ae be
       -0.51597494 -0.5280201 -0.62084746 -0.34051427
000180 59 b9 d2 be 07 07 96 3e 7e bc 2a be 05 5c c8 be
       -0.41157034 0.29302236 -0.16673467 -0.39132705
000190 8b 7b 17 be bb 6f 01 bf 28 72 bd be 20 af 76 be
       -0.14793222 -0.5056111 -0.37001157 -0.24090242
0001a0 73 7a af 3e 24 c9 a6 be 97 04 a2 be 68 15 08 3f
       0.3427311 -0.32575333 -0.31644127 0.53157663
0001b0 2b cb 86 be 91 d8 48 be 3c 63 12 3e 16 57 3c 3e
       -0.2632688 -0.19613864 0.14295667 0.18392596

bias f4 [4]
000000 ee bb 7e 3d 1b 16 ac be 0c 03 0d 3e c1 d8 97 be
       0.062190942 -0.33610615 0.13770694 -0.29657558

weight f4 [28, 4]
000000 aa 4e 9d 3e 86 c5 26 be fe ac ff bc 96 71 3b 3e
       0.30724078 -0.16286287 -0.031210419 0.18305048
000010 67 65 17 3f bc 15 22 bf a2 ad 69 3e 42 ad 0a bf
       0.591391 -0.63314414 0.22820142 -0.5417062
000020 fe 5d 91 bd 15 fb 7e be f1 6c d4 3e ed 8d be be
       -0.07098006 -0.24900468 0.41489366 -0.37217656
000030 c9 e9 91 3e 69 d8 af bd a6 e7 3d 3e ee 08 53 3e
       0.28498676 -0.08586199 0.18545398 0.20608875
000040 aa e2 81 bd 18 2d 2b 3d 31 2b 71 be 90 d5 18 be
       -0.06342061 0.04179105 -0.23551632 -0.14925218
000050 a6 a4 67 bc d8 19 88 3e 21 cc 0b be a5 0c 88 be
       -0.014138376 0.26582217 -0.13652088 -0.26572147
000060 a8 7e 90 bc 9c be 68 3e ba 88 16 3d 47 29 43 be
       -0.01763852 0.22728962 0.036751486 -0.19058715
000070 51 bd 3b 3e ae 08 4a 3e 49 48 f2 bd e6 6d 1b be
       0.18333937 0.19729874 -0.118301935 -0.15178642
000080 ec 85 d4 be fc 2a 00 3e fa 9c 9f 3e e7 c4 05 be
       -0.41508424 0.12516397 0.3117445 -0.13063394
000090 30 0a ab 3e ac 70 25 3e 99 8a f7 be 38 8d ac be
       0.3340621 0.16156262 -0.4834793 -0.3370149
0000a0 c2 5e f4 bd 2c 0d 62 3e c1 9a 6c be 00 5e 8e be
       -0.11932136 0.22075337 -0.23105909 -0.2780609
0000b0 8e 6f 86 bd 42 34 da 3d bb 65 73 bd 46 79 04 be
       -0.06564246 0.10654499 -0.05942319 -0.12936887
0000c0 fa f3 94 3e 05 f3 ae 3c cc 9a fe bd 3a bf ae 3c
       0.2909239 0.021356115 -0.12431869 0.021331418
0000d0 b7 c2 c9 bc 8a 3f 82 3e 1a aa 89 3e ed f8 b9 bd
       -0.02462898 0.254391 0.2688759 -0.09080682
0000e0 72 8a 69 3d c4 f8 d0 bb 69 4f 8e 3d 6e 02 df 3c
       0.057016797 -0.0063773114 0.0694874 0.027222838
0000f0 36 44 79 be c1 f9 0e be e7 6e 9c 3d c4 48 42 3d
       -0.24342427 -0.13962461 0.076383404 0.047432676
000100 10 c8 14 bc 0b 68 c6 3e 7a 99 a6 be 3e 6b cf be
       -0.009080902 0.38751253 -0.32538968 -0.40511507
000110 87 7f e0 be 04 f9 5b be 3d 84 40 3e 57 c0 80 3d
       -0.43847296 -0.2148171 0.18800445 0.06286686
000120 44 21 05 3e a0 28 12 bf bf 83 b1 be 7c e3 8d 3e
       0.13000971 -0.5709324 -0.34670827 0.2771262
000130 35 38 2c 3e 65 17 09 be da 5b e2 3d e4 48 34 3e
       0.16818316 -0.1338783 0.110526755 0.1760593
000140 da 56 11 bf c4 f9 c9 3e 7d f0 a3 3e 67 26 b2 be
       -0.5677315 0.3944837 0.32019415 -0.34794924
000150 be 50 fd 3b 69 1b a9 3e 5d b2 22 3e 3b df 49 be
       0.0077305725 0.33028725 0.15888353 -0.19714062
000160 97 49 07 bf 99 39 d1 3e 54 30 88 3e da 2e c3 be
       -0.52846664 0.40864256 0.2659937 -0.38121682
000170 5c 38 85 3e ad 34 66 be 6d f5 ca bd da e9 57 3e
       0.2601956 -0.22481032 -0.099100925 0.21085301
000180 7d cf a3 bd b9 ba 13 3e 90 21 64 be a3 c2 52 be
       -0.079985596 0.14426698 -0.22278428 -0.2058206
000190 2e 86 8d be 8a cc b0 bd e5 2e ba 3e f8 8b dc 3d
       -0.27641433 -0.08632763 0.36363903 0.107688844
0001a0 e1 76 fe be c3 be 58 3e d9 b5 04 be a6 47 b0 be
       -0.49700072 0.2116652 -0.12959994 -0.34429663
0001b0 11 c4 8f be 22 6a 8b 3a 0b 1c c1 be 1e 7b 5d be
       -0.28079274 0.0010636488 -0.37716708 -0.21628997

bias f4 [28]
000000 0c 28 0a 3f 20 c3 2e 3e dc df 6a 3f f2 1b 73 3d
       0.53967357 0.17066622 0.9174783 0.059352823
000010 c1 70 97 3e 92 c6 44 3e f8 59 3b bf 55 5a 1c 3e
       0.29578212 0.19216374 -0.73184156 0.15268834
000020 f6 3e 9c 3e 2f e3 0b 3f 92 8d 14 3d e0 1e 0d be
       0.30516785 0.5464353 0.036267824 -0.13781309
000030 29 8b 49 3e 94 cb 33 be f6 2b 35 be 59 0a eb 3e
       0.19681992 -0.17558128 -0.17692551 0.45906332
000040 60 50 33 3e 1a b3 25 bf 48 45 02 3f de d3 2f be
       0.1751113 -0.6472641 0.50886965 -0.17170665
000050 ee dc 85 be 6e bc d8 bd 2b 85 e1 be 98 ca 25 3e
       -0.26145118 -0.10582815 -0.44046912 0.16190565
000060 c3 21 00 bd e6 e0 4e 3f 0b d8 44 bc 2c 10 85 be
       -0.031282198 0.8081192 -0.012014399 -0.259889
