models/autoencoder_spotify.pt (torch, 18677 bytes, 16 tensors)

weight f4 [23, 28]
0	0xbe56835a	-0.20948544
1	0xbd695874	-0.05696912
2	0x3d0f8b11	0.035044733
3	0x3e0bcb8f	0.1365187
4	0xbe0a3e8c	-0.13500422
5	0x3d0ad3fb	0.033893567
6	0xbe0a5d2b	-0.13512103
7	0xbcd734f0	-0.02627036
8	0xbdbebb5e	-0.09313081
9	0x3d87bc8c	0.06627759
10	0xbd460525	-0.04834475
11	0x3cf83076	0.030296545
12	0x3d8f3e40	0.06994295
13	0x3d70adc8	0.05875948
14	0x3e12dbd7	0.14341675
15	0x3e166817	0.14688145
16	0xbe441bdf	-0.19151257
17	0xbd3b3f3b	-0.0457146
18	0x3d89f86a	0.06736834
19	0x3d5210d8	0.051285595
20	0xbe1503b3	-0.14552192
21	0xbc935fd2	-0.017990027
22	0x3d82d164	0.06387594
23	0xbd437d36	-0.047726832
24	0xbe028c01	-0.1274872
25	0xbd19d925	-0.0375606
26	0x3b936425	0.004498022
27	0x3e0decb4	0.13859826
28	0x3d94e2de	0.07269834
29	0xbdd771a5	-0.10519723
30	0x3db92fe6	0.09042339
31	0xbe2d6504	-0.16933066
32	0xbe06fa20	-0.13181353
33	0xbe361963	-0.17783122
34	0x3d70c1fd	0.05877875
35	0xbe1953bd	-0.1497335
36	0xbdcae45f	-0.099068396
37	0xbe4a0367	-0.1972786
38	0x3e057472	0.13032702
39	0x3e2940af	0.16528581
40	0x3cb03b4a	0.021512646
41	0x3d45f5b1	0.048330013
42	0x3d2862ee	0.04110997
43	0xbda2dc1b	-0.07952138
44	0x3dd589a1	0.10426641
45	0x3da82f74	0.08212176
46	0xbe303f39	-0.17211618
47	0xbd5dffe4	-0.054199114
48	0x3e2ade0b	0.16686265
49	0xbdb40fc9	-0.08792073
50	0xbd3cab0c	-0.04606156
51	0xbe183b3d	-0.14866348
52	0x3c79d488	0.015248425
53	0x3d826350	0.063665986
54	0x3d7be71c	0.0614997
55	0xbe2b60af	-0.167361
56	0x3cfe92bd	0.03107583
57	0x3e5b4ee0	0.21416807
58	0xbd4eb6b1	-0.050467197
59	0x3e2de24f	0.16980861
60	0xbdb738c2	-0.089463726
61	0x3e2ac0be	0.16675088
62	0x3e6e54af	0.23274492
63	0x3de954b5	0.1139311
64	0xbdcc09c6	-0.09962802
65	0x3d64cbba	0.05585835
66	0xbdbe2fae	-0.09286438
67	0xbdc96817	-0.09834307
68	0x3d1d51ca	0.03840808
69	0xbcc24962	-0.023716632
70	0x3d6332bc	0.055468306
71	0x3dead8fb	0.11467167
72	0xbd4b1585	-0.04958107
73	0xbddc541e	-0.107582316
74	0x3e3d0ba3	0.1846147
75	0x3d966789	0.073439665
76	0xbdafb313	-0.085790776
77	0x3e793979	0.2433833
78	0xbd6da659	-0.05801997
79	0x3d877cd6	0.066156074
80	0xbe5f6d54	-0.21819049
81	0x3e38e9b7	0.18057905
82	0xbe2efcff	-0.17088698
83	0x3d7df68c	0.062002704
84	0x3e3a4776	0.18191323
85	0x3e1be71a	0.15224877
86	0x3e91b736	0.2846009
87	0x3e836568	0.25663304
88	0x3e6b9791	0.23007037
89	0x3e9263bd	0.2859172
90	0x3e24bcad	0.16087599
91	0xbd52e811	-0.051490847
92	0x3e4d9d4b	0.20079534
93	0x3d7c8ff6	0.06166073
94	0x3c95aba0	0.018270314
95	0x3d4b6be2	0.049663432
96	0x3e9453a5	0.28970066
97	0xbd438b5a	-0.047740318
98	0x3dde8146	0.10864501
99	0x3e783257	0.24237953
100	0xbd85de14	-0.06536499
101	0xbcab4f2a	-0.020911772
102	0xbb20de86	-0.0024546697
103	0x3e402310	0.18763375
104	0xbe88d8ef	-0.26728007
105	0x3d39745a	0.045276977
106	0x3e0dd680	0.13851357
107	0x3d8ab44d	0.06772671
108	0x3da7709e	0.08175777
109	0xbd7a1f82	-0.061065204
110	0xbded8443	-0.115974925
111	0xbd50aa4b	-0.050943654
112	0x3cdbeb76	0.026845675
113	0x3e4ef0de	0.20209071
114	0x3e9ba46d	0.30398884
115	0xbd4ed9de	-0.050500743
116	0x3e85353a	0.2601717
117	0x3e80af3a	0.25133687
118	0x3e831f53	0.25609836
119	0x3d8803cd	0.0664135
120	0x3e65fb50	0.2245915
121	0x3d1d87ac	0.038459465
122	0x3e5453d2	0.207351
123	0x3e4674dc	0.19380516
124	0x3d57195e	0.052514426
125	0xbe6cd9da	-0.23129979
126	0x3e00edc4	0.125907
127	0x3c9d408a	0.019195814
128	0x3e9bb7e4	0.30413735
129	0x3d820b96	0.06349866
130	0x3e86e074	0.2634312
131	0x3ea32f57	0.31872055
132	0x3be0e311	0.006863006
133	0x3e9be295	0.30446306
134	0x3dc003e7	0.09375744
135	0xbe24933c	-0.1607179
136	0xbe875293	-0.26430187
137	0x3e3cdbac	0.18443173
138	0xbe516cbf	-0.2045164
139	0x3e87f0e3	0.2655097
140	0x3e2a7a3c	0.16648191
141	0x3e281052	0.16412476
142	0x3e5a21c6	0.21301946
143	0x3e39fb25	0.1816221
144	0x3e890c04	0.2676698
145	0x3e5b7940	0.21432972
146	0xbd2d34b7	-0.0422866
147	0x3e296230	0.16541362
148	0x3d1c130a	0.038104095
149	0x3e129acc	0.14316863
150	0xbda2bec2	-0.079465404
151	0x3d935f96	0.07195966
152	0x3e64d952	0.22348526
153	0xbd9dcf1a	-0.07705517
154	0x3cd84197	0.026398463
155	0x3e04eebd	0.12981696
156	0xbd17c804	-0.037055984
157	0xbd129f26	-0.035796307
158	0x3d7e9d82	0.06216193
159	0x3d82c1c1	0.06384612
160	0xbdc16602	-0.094432846
161	0x3e8d99dd	0.2765645
162	0x3e41983a	0.18905726
163	0x3dd21d3a	0.10259481
164	0xbdd9edc5	-0.10641054
165	0x3e87a566	0.26493376
166	0xbca7f7ba	-0.020503867
167	0xbc9ad4ee	-0.01890036
168	0x3df00843	0.11720326
169	0xbd8b685d	-0.06807015
170	0x3e3325ec	0.17494935
171	0xbd206500	-0.03915882
172	0x3dbd0967	0.09230309
173	0x3dbf6802	0.0934601
174	0xbd0d23c2	-0.03445793
175	0x3dc8b2b2	0.097997084
176	0x3d6d314b	0.057908338
177	0x3dfd73ff	0.1237564
178	0x3d053ef6	0.032530747
179	0x3dc4abc7	0.096030764
180	0xba9bdf02	-0.0011892023
181	0xbdfa59aa	-0.12224133
182	0x3d0fd551	0.035115544
183	0x3df5d770	0.12003982
184	0x3e51f3c6	0.20503148
185	0x3d6b2694	0.057409838
186	0x3e56d759	0.20980586
187	0x3e78f811	0.2431338
188	0xbe5f73d9	-0.21821536
189	0xbcf9c84e	-0.03049102
190	0x3e03fe97	0.12890087
191	0x3d3a908b	0.045548003
192	0xbddd1d25	-0.107965745
193	0xbda05026	-0.07827787
194	0xbd877d83	-0.06615736
195	0x3e522eaa	0.20525613
196	0xbe2ce960	-0.168859
197	0x3d14c977	0.036324944
198	0x3e272254	0.16321689
199	0x3e025e86	0.1273137
200	0x3dbe6b15	0.09297768
201	0x3daa7ab3	0.08324184
202	0x3df12fc8	0.11776692
203	0x3db9b4f8	0.0906772
204	0xbd90d58c	-0.07071981
205	0x3df44142	0.119265094
206	0xbd881c1c	-0.066459864
207	0xbd9dc2d3	-0.077031754
208	0xbe336154	-0.17517596
209	0xbdf46a03	-0.11934283
210	0x3d8bbcf6	0.06823151
211	0xbd91ed5d	-0.071253516
212	0x3d09c2c4	0.03363301
213	0x3e2f55df	0.17122601
214	0x3e03afee	0.1286008
215	0xbdf56980	-0.11983013
216	0x3d074016	0.0330201
217	0xbd33da30	-0.04390925
218	0xbda1b4e9	-0.07895834
219	0x3db26d3b	0.0871224
220	0x3e1b04fc	0.1513862
221	0x3dbb4173	0.09143343
222	0x3dbba651	0.09162582
223	0x3c535f78	0.0129011795
224	0xbe376eb1	-0.17913319
225	0xbde9c626	-0.11414747
226	0xbdd06e33	-0.10177269
227	0xbd1f031a	-0.038821317
228	0xbd25b297	-0.04045352
229	0x3da708b8	0.0815596
230	0xbc7af966	-0.01531825
231	0x3e3df213	0.18549375
232	0xbdf365eb	-0.11884674
233	0x3e1b53de	0.15168712
234	0xbe007470	-0.12544417
235	0x3db89a0e	0.090137586
236	0xbb0ed236	-0.0021792776
237	0x3e2e38ad	0.17013808
238	0xbbbc915e	-0.005754634
239	0xbe2e2ee2	-0.17010072
240	0x3e00eda3	0.12590651
241	0xbd4b5f89	-0.049651656
242	0x3d0a77aa	0.033805527
243	0xbe286572	-0.16444948
244	0x3d6b0238	0.057375163
245	0xbd1773f8	-0.03697583
246	0x3c8242ec	0.015901051
247	0xbe12046c	-0.142595
248	0xbe3a3a07	-0.18186198
249	0xbe1eed0f	-0.15520118
250	0xbde55a14	-0.11198822
251	0x3e03077c	0.12795824
252	0x3e7f7bc9	0.24949564
253	0x3e77cf30	0.2420013
254	0x3da55298	0.08072394
255	0x3e3f5ea3	0.18688445

bias f4 [23]
0	0xbcd86187	-0.026413692
1	0xbe42983a	-0.19003382
2	0xbdc4c0cc	-0.096070856
3	0x3e170f4e	0.14751932
4	0x3e06990b	0.13144319
5	0x3e2ed946	0.1707507
6	0x3d7dfdca	0.06200961
7	0xbdbd390b	-0.09239396
8	0x3dc61684	0.09672263
9	0x3e951127	0.2911465
10	0x3e17d011	0.14825465
11	0xbc8db9f2	-0.01730058
12	0x3e0ce98a	0.13760963
13	0xbcc9048b	-0.0245383
14	0x3e21e77e	0.15810964
15	0x3e2f9c04	0.17149359
16	0x3e8a6797	0.27032158
17	0x38d248f4	0.00010027169
18	0x3e09674a	0.13418308
19	0xbdc8c01d	-0.09802268
20	0xbdbe891d	-0.09303496
21	0x3e2aee01	0.16692354
22	0xbde44aae	-0.111470565

weight f4 [18, 23]
0	0x3e0e8890	0.13919282
1	0x3e14b165	0.14520796
2	0x3dfe5d65	0.12420157
3	0xbd81a1b7	-0.06329673
4	0xbe0abe96	-0.13549265
5	0x3e0fb3a8	0.14033377
6	0xbd2cd6e4	-0.042197123
7	0x3e1d9e84	0.153925
8	0x3dff3e1b	0.124630176
9	0xbe0f24ba	-0.13978854
10	0xbdd63139	-0.10458607
11	0xbe1644d2	-0.1467469
12	0xbe46dca4	-0.19420105
13	0xbe35cdeb	-0.17754333
14	0xbe1584e4	-0.14601475
15	0x3db32475	0.08747188
16	0x39b7e0ec	0.0003507206
17	0xbe29eb82	-0.16593745
18	0x3dfd11e5	0.12356929
19	0x3cd35656	0.025798004
20	0xbdd7ceea	-0.105375126
21	0xbd2d3172	-0.042283483
22	0x3cfe3324	0.031030245
23	0xbe6981d0	-0.22803426
24	0xbe4673b6	-0.19380078
25	0x3e9b8b56	0.30379742
26	0x3dbe118f	0.09280693
27	0x3e0191bd	0.12653251
28	0x3de9a3a2	0.114081636
29	0x3d653de1	0.055967215
30	0x3da60f54	0.08108392
31	0xbe1cb1ff	-0.15302275
32	0x3e21f625	0.15816553
33	0xbd1b6688	-0.03793958
34	0xbe290792	-0.16506794
35	0xbd8bb58e	-0.06821738
36	0x3e3ab1f9	0.18231954
37	0xbc9dc5ae	-0.0192593
38	0x3ddf74cf	0.10910951
39	0x3e026c48	0.12736619
40	0xbea58f4a	-0.32335883
41	0xbd212d83	-0.039350044
42	0x3d470c24	0.048595563
43	0xbe65f2c0	-0.22455883
44	0x3d0e6625	0.03476538
45	0x3cd7dd4f	0.026350645
46	0xbe9ddd8f	-0.30833098
47	0xbcf32cf5	-0.029684523
48	0x3e37a3df	0.17933606
49	0x3de41cad	0.11138282
50	0x3e539d7a	0.20665541
51	0x3e8faf8d	0.28063622
52	0x3d90d387	0.07071596
53	0x3d964da4	0.073390275
54	0xbe80487d	-0.25055304
55	0x3e96ef77	0.29479572
56	0xbe9b1322	-0.30288035
57	0xbe243f3e	-0.1603975
58	0x3c50ad66	0.012736654
59	0x3e9c5e66	0.3054077
60	0xbe9e3f8b	-0.30907854
61	0x3e431269	0.19049992
62	0x3d3e5baa	0.046474136
63	0xbe5edc12	-0.21763638
64	0xbc938273	-0.018006539
65	0xbe600a97	-0.2187904
66	0xbe075e6d	-0.13219614
67	0x3e613d04	0.21995932
68	0xbda06bad	-0.078330375
69	0x3db3baac	0.08775839
70	0xbe788e71	-0.24273087
71	0x3d445300	0.047930717
72	0x3e49c9bd	0.19705863
73	0x3e85e6d5	0.26152673
74	0x3e1b26a0	0.15151453
75	0x3e06d76a	0.13168111
76	0x3e196752	0.1498082
77	0xbe093501	-0.13399126
78	0x3e6667c1	0.22500516
79	0x3d2bf4fa	0.041981675
80	0xbc9ef5f4	-0.019404389
81	0xbe827404	-0.25479138
82	0x3e631241	0.22174932
83	0xbe5925cf	-0.21205829
84	0x3d08fc50	0.03344375
85	0x3dfed478	0.12442869
86	0xbe554e9f	-0.20830773
87	0xbe9e9693	-0.30974254
88	0x3ac7df1a	0.0015248985
89	0x3c851875	0.016247014
90	0xbca04c0a	-0.019567508
91	0xbe77e783	-0.24209408
92	0xbd2d0566	-0.042241476
93	0x3cbbf3c5	0.022943387
94	0x3e02606c	0.12732095
95	0x3d511646	0.051046632
96	0xbd58298f	-0.05277401
97	0x3d6b9678	0.057516545
98	0x3e5eb955	0.21750386
99	0xbe192b97	-0.14958034
100	0x3d8fdc3e	0.0702443
101	0x3d8cb0c4	0.06869653
102	0xbd39557c	-0.04524754
103	0x3e0db6cb	0.13839261
104	0x3e41f9f7	0.1894301
105	0x3de9a938	0.11409229
106	0xbdc42bbf	-0.095786564
107	0xbe4ba6a4	-0.19887787
108	0xbe04efbf	-0.12982081
109	0xbd9318cf	-0.07182466
110	0x3d82a99e	0.06380008
111	0x3dd310b9	0.10305924
112	0x3d0fc79c	0.03510247
113	0xbdd10d6c	-0.10207638
114	0x3e6b5eaf	0.22985338
115	0xbe3da3fe	-0.1851959
116	0xbe31e60d	-0.17372914
117	0xbcec69de	-0.028859075
118	0x3e99c680	0.30034256
119	0x3d94e8be	0.072709545
120	0xbd5552b9	-0.052080844
121	0x3c37b3bd	0.011212287
122	0x3a4eef24	0.0007893911
123	0xbe83362a	-0.2562726
124	0x3d491630	0.049093425
125	0xbe2cae85	-0.16863449
126	0x3bd2f7ec	0.006438246
127	0xbe982872	-0.29718357
128	0x3e082cd9	0.13298358
129	0x3ce9749f	0.028497992
130	0x3d6a65df	0.057226058
131	0x3e5b4b6a	0.21415487
132	0xbdbc97a8	-0.09208614
133	0xbd80d20c	-0.06290063
134	0xbdb09676	-0.08622448
135	0xbe2eb6d1	-0.17061926
136	0x3e5ab3f5	0.2135771
137	0xbe12fdb8	-0.14354599
138	0xbd654b09	-0.055979762
139	0xbe8253ff	-0.2545471
140	0xbd1a2f6a	-0.037642874
141	0x3e1d3427	0.15351926
142	0x3e01e276	0.12684044
143	0x3d2a3e01	0.041563038
144	0xbe4f1c26	-0.20225582
145	0x3d58acfc	0.052899346
146	0xbe09c854	-0.13455325
147	0x3de506eb	0.1118296
148	0xbe735567	-0.23763047
149	0xbe4e485e	-0.20144793
150	0x3c6282a3	0.0138250915
151	0x3e727a19	0.23679389
152	0xbe7fbdc5	-0.24974735
153	0x3e3de82d	0.185456
154	0x3e88d178	0.26722312
155	0x3c8b5d36	0.01701222
156	0x3bd57a66	0.006514835
157	0xbe7241d2	-0.23657921
158	0xbd37d8ae	-0.044884376
159	0x3e448052	0.19189575
160	0xbe97e6fe	-0.2966842
161	0x3d772712	0.060339995
162	0x3e1b58b0	0.1517055
163	0x3df4b2e1	0.11948181
164	0x3e54a576	0.20766243
165	0xbd239910	-0.039940894
166	0xbe3ab2c0	-0.1823225
167	0x3de8fbb8	0.113761365
168	0xbcd9e089	-0.026596325
169	0xbe2e33fb	-0.17012016
170	0xbe01a3f0	-0.12660193
171	0xbdc91670	-0.09818733
172	0x3d5d46c4	0.054022565
173	0x3c7d6bf2	0.015467631
174	0xbda319c9	-0.079639025
175	0xbd60b540	-0.054860353
176	0xbdff1931	-0.12455977
177	0x3e3a93ae	0.18220398
178	0xbc92c093	-0.017914092
179	0xbde4f2c2	-0.11179115
180	0x3da337be	0.07969616
181	0xbd9193aa	-0.07108243
182	0xbd221b70	-0.039576948
183	0xbd7f4bc9	-0.062328134
184	0x3e3e229a	0.18567887
185	0x3e03403c	0.12817472
186	0x3cd4d920	0.02598244
187	0xbe374b08	-0.17899716
188	0xbe0d7150	-0.13812757
189	0xbbba85ee	-0.005692235
190	0x3cf08f3e	0.029365178
191	0x3e3b2ed3	0.18279581
192	0xbd0531e9	-0.0325183
193	0x3c4fe7ee	0.012689574
194	0xbd8e0fca	-0.06936605
195	0xbe43dc33	-0.19126968
196	0xbd264cb9	-0.040600512
197	0xbde1f85b	-0.11033698
198	0xbdcf6d9e	-0.1012833
199	0x3df2c785	0.118544616
200	0x3a822ce6	0.0009931594
201	0x3c615507	0.013753182
202	0xbbacf107	-0.005277756
203	0xbc8a300d	-0.016868616
204	0x3e30b463	0.17256312
205	0x3a7d1908	0.0009654914
206	0xbd899f16	-0.06719796
207	0x3dea46b1	0.114392646
208	0xbda3590b	-0.07975968
209	0xbe5250d4	-0.20538646
210	0xbd359186	-0.044328235
211	0x3e0e24c1	0.13881208
212	0xbe378267	-0.17920838
213	0x3cee2e96	0.029074948
214	0xbe31e2ee	-0.17371723
215	0x3d883618	0.066509426
216	0x3dc12fbb	0.09432932
217	0x3b948986	0.0045329956
218	0xbe02d621	-0.12776996
219	0x3e26966a	0.16268316
220	0x3bc2374a	0.005927001
221	0xbda68cfb	-0.08132359
222	0xbdf393b2	-0.11893405
223	0x3e13a206	0.14417276
224	0x3dc577c2	0.096419826
225	0xbc9f551f	-0.019449769
226	0x3e18b536	0.14912876
227	0x3e69126e	0.22760937
228	0xbd79c7bc	-0.060981497
229	0xbe0f3086	-0.13983354
230	0xbdad8ad4	-0.08473745
231	0xbd6b61a5	-0.057466168
232	0x3d207ef2	0.039183564
233	0xbe30a92d	-0.17252035
234	0x3d889145	0.06668333
235	0xbd97afbd	-0.07406566
236	0x3dc8b205	0.097995795
237	0xbd136900	-0.035988808
238	0x3e6a8c17	0.22905003
239	0xbe374c21	-0.17900135
240	0xbe094a32	-0.1340721
241	0x3d976e42	0.07394077
242	0x3e3cd10f	0.18439125
243	0xbe037b68	-0.12840044
244	0xbd57af5f	-0.05265748
245	0x3d23aa47	0.03995731
246	0x3dc507bd	0.096206166
247	0xbb996726	-0.0046814857
248	0x3e1dd7ac	0.15414304
249	0xbdd4f48c	-0.10398206
250	0x3e5a8e53	0.21343355
251	0xbbc9f815	-0.006163607
252	0xbd927f8c	-0.07153234
253	0x3e2e51c9	0.17023386
254	0x3d6f733b	0.0584595
255	0xbdf766ab	-0.12080129

bias f4 [18]
0	0xbdde6374	-0.10858813
1	0x3e32da3d	0.17466064
2	0x3c62ce1e	0.0138430875
3	0xbd95c9a3	-0.0731385
4	0xbd9f4c5e	-0.07778238
5	0x3e2e2794	0.17007285
6	0x3e9fa316	0.31179112
7	0xbc63d21d	-0.013905075
8	0x3d733551	0.05937702
9	0x3de9516f	0.11392485
10	0xbdd60000	-0.10449219
11	0x3e26823e	0.16260621
12	0x3bb8e234	0.0056422
13	0x3c84e3f4	0.016221978
14	0x3cfd9a46	0.030957352
15	0xbe589e42	-0.2115412
16	0x3d9ebd38	0.07750934
17	0x3d266be9	0.040630255

weight f4 [13, 18]
0	0x3c05f7ea	0.008176783
1	0xbe22bed2	-0.15893105
2	0x3dbc46a2	0.0919316
3	0xbe5b7e37	-0.21434866
4	0xbd5e90d3	-0.054337334
5	0xbc60d832	-0.01372342
6	0xbe4dd883	-0.20102124
7	0x3d43534e	0.047686867
8	0xbcd9918b	-0.026558658
9	0x3c21a821	0.009866745
10	0x3e522126	0.20520458
11	0x3e3f746f	0.1869676
12	0x3e04afec	0.12957734
13	0x3e3c745a	0.1840376
14	0x3ca81432	0.020517442
15	0xbe01d58a	-0.12679115
16	0xbdd06569	-0.101755925
17	0x3df13362	0.117773786
18	0xbea7843f	-0.32718083
19	0x3e16d2ab	0.14728801
20	0x3eabb702	0.3353806
21	0x3db13b11	0.08653844
22	0xbe500364	-0.20313793
23	0x3e839f87	0.25707647
24	0xbd864bd7	-0.06557434
25	0xbdb39bd8	-0.08769959
26	0xbe2f32db	-0.17109244
27	0xbe9ae191	-0.3025022
28	0xbcb5abd1	-0.022176655
29	0xbe47b457	-0.19502388
30	0xbe5800f1	-0.21094109
31	0xbe260d74	-0.1621607
32	0x3e1263c6	0.14295873
33	0xbeb8d6e3	-0.36101446
34	0xbea7dcf6	-0.32785767
35	0x3dc19ebe	0.09454106
36	0xbda48e54	-0.080349594
37	0x3e253f03	0.16137318
38	0x3cc23a33	0.023709392
39	0xbc61f18f	-0.013790502
40	0xbdc69b51	-0.09697593
41	0xbddbfd36	-0.107416555
42	0xbdc4bcc9	-0.096063204
43	0x3e826034	0.25464022
44	0x3e15dad8	0.14634264
45	0x3dff17eb	0.12455734
46	0x3dbbd50a	0.09171493
47	0x3e82884f	0.2549462
48	0x3e03c7e8	0.12869227
49	0x3e072ec4	0.13201433
50	0xbe4ca0c3	-0.199832
51	0x3c917cff	0.017759798
52	0xbc69505c	-0.014240351
53	0xbe27ed8f	-0.16399215
54	0xbdd42056	-0.1035773
55	0x3debb9e4	0.11510065
56	0xbd47c71a	-0.048773862
57	0x3dc26229	0.09491379
58	0x3da17145	0.078829326
59	0x3db3990f	0.08769428
60	0xbe0a692a	-0.1351668
61	0x3e03fb78	0.12888896
62	0x3e93ba7f	0.28853223
63	0xbdea8bd6	-0.11452453
64	0xbd52187d	-0.051292885
65	0x3e8596f6	0.26091737
66	0xbd216f7e	-0.039412968
67	0x3e30826e	0.17237255
68	0xbe8179dd	-0.25288287
69	0x3e7b80a0	0.24560785
70	0x3e28b095	0.1647361
71	0xbe2edd9a	-0.17076722
72	0x3ce611cd	0.02808466
73	0x3e9db615	0.3080298
74	0x3e8fbfde	0.2807607
75	0x3ebb40f6	0.36573
76	0xbe58189b	-0.21103136
77	0x3e097457	0.13423286
78	0x3e2c9611	0.16854121
79	0xbe48888f	-0.19583343
80	0xbe891c7b	-0.2677954
81	0xbda2c138	-0.0794701
82	0xbe84b0d8	-0.2591617
83	0xbdddc3dd	-0.108283736
84	0xbe5d1675	-0.21590598
85	0xbe9c4d34	-0.3052765
86	0xbce474ae	-0.027887668
87	0xbeabc961	-0.33552077
88	0xbe9755cd	-0.29557648
89	0x3e81756f	0.25284907
90	0xbe185dc5	-0.1487952
91	0xbdac01ac	-0.083987564
92	0x3e06198f	0.13095687
93	0x3d0b0877	0.03394362
94	0xbdc1692c	-0.09443888
95	0x3e34b070	0.1764543
96	0x3e3cd06a	0.18438879
97	0x3e32d44c	0.17463797
98	0xbe7acce9	-0.2449223
99	0x3d90d5f0	0.07072055
100	0x3d865361	0.06558872
101	0x3d3390d0	0.043839276
102	0x3e480687	0.1953374
103	0x3e215f14	0.15758926
104	0x3e79abf2	0.24381998
105	0x3deb8390	0.11499703
106	0x3e073d89	0.13207068
107	0xbe69c8d3	-0.22830515
108	0xbea5df96	-0.32397145
109	0xbdc86044	-0.09783986
110	0x3e82a891	0.2551923
111	0x3d7706be	0.060309164
112	0x3d37a525	0.04483523
113	0x3df3cff0	0.11904895
114	0x3e73debc	0.23815435
115	0x3da2fe8d	0.07958708
116	0xbe826ba8	-0.2547276
117	0x3bbc13f2	0.0057396824
118	0xbea0a176	-0.31373185
119	0xbe2cafdd	-0.16863962
120	0x3e200f6c	0.15630883
121	0xbde28d0a	-0.11062057
122	0x3e7c515f	0.24640416
123	0xbcb9b1ac	-0.022667728
124	0xbea0627b	-0.31325135
125	0x3dafdde1	0.08587242
126	0x3a46259e	0.0007558706
127	0xbda7b876	-0.0818948
128	0xbca612be	-0.020272609
129	0xbe13b424	-0.14424187
130	0xbb9a1639	-0.004702356
131	0x3de8945b	0.113564216
132	0xbd8569c9	-0.065143175
133	0x3d2f3afe	0.04278087
134	0x3dc87235	0.09787408
135	0xbe0c1eec	-0.13683671
136	0xbd087807	-0.033317592
137	0xbd478efa	-0.048720337
138	0xbe12fe67	-0.1435486
139	0xbe0aca98	-0.13553846
140	0xbdcb02d0	-0.09912646
141	0xbe3b8cf4	-0.18315488
142	0xbdb72353	-0.089422844
143	0x3ca55d58	0.020186111
144	0xbe2c8153	-0.16846208
145	0xbddbfc75	-0.10741512
146	0x3e916516	0.28397435
147	0x3e143600	0.14473724
148	0xbdcf871d	-0.10133193
149	0x3e99a240	0.300066
150	0xbdc22245	-0.09479193
151	0xbe4163ab	-0.18885677
152	0xbdffe688	-0.12495142
153	0xbe9e0793	-0.30865154
154	0xbde490ea	-0.11160453
155	0xbd2f87a1	-0.042853955
156	0xbe777489	-0.24165548
157	0xbea9382b	-0.33050665
158	0x3dcdccd4	0.100488335
159	0xbdbd77fb	-0.092514
160	0x3dc1224e	0.09430371
161	0x3cfe9fa4	0.031081982
162	0xbdc78a91	-0.09743226
163	0x3e2534be	0.16133401
164	0xbcec6570	-0.028856963
165	0xbd8fa62c	-0.07014117
166	0x3d565235	0.052324492
167	0x3dfcb102	0.12338449
168	0xbe2d6689	-0.16933645
169	0xbdc3a428	-0.09552795
170	0x3e20af83	0.15691952
171	0x3e63726d	0.22211619
172	0x3e452571	0.19252564
173	0x3cda51d1	0.026650341
174	0x3c12acad	0.008952302
175	0x3e1757b7	0.14779554
176	0xbd1359bc	-0.03597425
177	0x3da83063	0.08212354
178	0x3e5c68c8	0.21524346
179	0xbda518c2	-0.08061363
180	0x3e1f5e01	0.15563203
181	0xbe568fc0	-0.20953274
182	0xbe1589af	-0.14603303
183	0x3e14cc7c	0.1453113
184	0xbe31d784	-0.17367369
185	0xbe3c612d	-0.18396445
186	0x3e15e90e	0.14639685
187	0x3cb1a7b7	0.021686418
188	0x3e68057f	0.22658347
189	0x3df912d7	0.121617965
190	0x3d49199d	0.049096692
191	0xbd792c1a	-0.060833074
192	0x3cbfc18d	0.023407722
193	0x3e1bdb9c	0.15220493
194	0xbdfbfcbd	-0.123040654
195	0x3d6ca3dc	0.057773456
196	0xbe2fd678	-0.17171657
197	0x3caacc1b	0.020849278
198	0x3d2a4099	0.04156551
199	0x3e8fdaa3	0.28096494
200	0x3e535a8a	0.20640007
201	0x3e1c9d4b	0.15294378
202	0xbb3be2f1	-0.0028669203
203	0x3d1a13fe	0.037616722
204	0x3c86b893	0.016445434
205	0xbe87a335	-0.26491705
206	0xbc83bd92	-0.016081605
207	0xbcde29ad	-0.027119482
208	0x3d5ef4ec	0.054432794
209	0x3c17fa71	0.0092760185
210	0x3d110f2f	0.03541487
211	0xbdabd405	-0.08390049
212	0x3dabbe1f	0.08385872
213	0xba2d56c0	-0.0006612353
214	0x3d67c3ad	0.056583095
215	0x3e03231d	0.12806363
216	0x3e2a1792	0.16610554
217	0x3e01a1e2	0.1265941
218	0x3e1af157	0.15131126
219	0x3e6bdbc2	0.2303305
220	0xbdef3c3a	-0.11681409
221	0xbd044e5a	-0.032301284
222	0x3d0c1712	0.03420169
223	0xbd88fc08	-0.06688696
224	0x3d0c6427	0.0342752
225	0xbe065288	-0.1311742
226	0x3e38cfea	0.18048063
227	0xbd3c70ac	-0.04600589
228	0x3dc47fc7	0.09594684
229	0x3d90ce9e	0.07070659
230	0xbb949b6c	-0.0045351293
231	0x3d8236d0	0.06358111
232	0xbe40086e	-0.18753216
233	0xbdf85a6c	-0.121266216

bias f4 [13]
0	0x3d65a7e2	0.05606831
1	0x3ea6776a	0.3251298
2	0xbc377639	-0.01119762
3	0xbe8c8a92	-0.2744947
4	0x3ea8e923	0.3299037
5	0xbd57f54d	-0.05272417
6	0xbd3c4e76	-0.045973264
7	0xbe5c148e	-0.21492216
8	0xbd8517bf	-0.0649867
9	0x3deef020	0.11666894
10	0xbe50fd48	-0.20409119
11	0xbcbe533d	-0.02323305
12	0x3dd5e6e1	0.10444427

weight f4 [8, 13]
0	0xbe3fbe88	-0.18725026
1	0x3ddfdd40	0.10930872
2	0x3e14ddbd	0.14537711
3	0xbe9c2621	-0.3049784
4	0x3e585073	0.21124439
5	0xbdce2e5a	-0.100674346
6	0x3d459c80	0.048244953
7	0xbe515b8f	-0.20445083
8	0x3e4463bc	0.1917867
9	0xbe24f81d	-0.16110273
10	0xbe366a48	-0.1781398
11	0x3e2fa38e	0.17152235
12	0x3d8e30b3	0.069428824
13	0x3df3b793	0.119002484
14	0xbd26abdb	-0.040691238
15	0xbe1333fe	-0.14375302
16	0x3e3c885b	0.1841139
17	0xbdce4117	-0.10071009
18	0xbc1b2abf	-0.009470641
19	0xbe9e02a3	-0.30861387
20	0x3e08ef85	0.1337262
21	0x3d737600	0.059438705
22	0x3e7f2cb6	0.249194
23	0x3d71fe1d	0.059080232
24	0x3d188a56	0.037241302
25	0xbe77d87c	-0.24203676
26	0xbe2057e0	-0.15658522
27	0x3d0a232f	0.03372496
28	0xbe6163d7	-0.22010742
29	0xbe62f754	-0.2216466
30	0xbd9aded2	-0.07562031
31	0xbccc0b42	-0.024907712
32	0xbe2679e3	-0.16257434
33	0xbd9116d3	-0.070844315
34	0xbb944ce4	-0.0045257676
35	0xbe80521c	-0.25062644
36	0x3da42469	0.08014757
37	0xbd88ef2b	-0.06686243
38	0x3d3fd09d	0.04682981
39	0xbe46b6dd	-0.19405694
40	0x3d1bcf01	0.03803921
41	0x3df45144	0.11929563
42	0x3e88abc7	0.26693556
43	0xbd9bfbf5	-0.07616416
44	0xbe8d2ecc	-0.27574766
45	0xbcfe92de	-0.031075891
46	0x3dc2a72f	0.09504544
47	0xbde06959	-0.109575935
48	0x3b79f2de	0.0038139145
49	0x3e8223e1	0.25417998
50	0x3de2a6dc	0.11066982
51	0xbe97288d	-0.29523125
52	0x3e6f2831	0.23355176
53	0xbdb0014e	-0.08593999
54	0x3e1cafd6	0.15301451
55	0x3e7ad6ec	0.24496049
56	0xbe4d41d1	-0.20044638
57	0xbd814ea0	-0.06313825
58	0x3e20e2a8	0.15711462
59	0xbdf9a0f1	-0.121889
60	0xbe8893e6	-0.26675338
61	0xbd8f5dad	-0.07000289
62	0xbe70058e	-0.23439619
63	0xbe82f9e5	-0.2558128
64	0xbd640125	-0.055665154
65	0xbe39040b	-0.18067949
66	0x3e53e5e5	0.20693167
67	0xbca5abc2	-0.020223502
68	0xbe929299	-0.2862747
69	0x3ea95fbb	0.3308085
70	0x3e386302	0.18006518
71	0x3e880cac	0.26572168
72	0xbe8910ba	-0.26770574
73	0x3c4c4fe6	0.012470221
74	0xbe4052f5	-0.18781646
75	0xbea06f8a	-0.31335098
76	0x3e2c01c4	0.16797549
77	0x3d5b8f16	0.053603254
78	0x3d95130c	0.072790235
79	0xbdb24e61	-0.08706356
80	0xbb39ec90	-0.0028369762
81	0x3dfcc3c7	0.12342029
82	0x3d774d10	0.060376227
83	0xbe6b6a7e	-0.22989842
84	0xbe4778c6	-0.19479665
85	0xbe16c4b9	-0.14723481
86	0xbe452778	-0.19253337
87	0x3e29eb67	0.16593705
88	0xbd49050a	-0.04907707
89	0x3c8aee26	0.016959261
90	0xbe247273	-0.16059284
91	0xbe2aefd4	-0.1669305
92	0x3e4e1888	0.20126545
93	0xbe8d406d	-0.27588215
94	0xbecbf9ba	-0.39838964
95	0x3edb338e	0.4281277
96	0x3df26502	0.11835672
97	0x3dc4a909	0.096025534
98	0x3d092a85	0.033487815
99	0x3dd550ad	0.10415778
100	0xbe9f5b36	-0.31124276
101	0xbeb06fb1	-0.34460214
102	0x3d14a7c2	0.0362928
103	0x3d8f273b	0.069899045

bias f4 [8]
0	0x3e847042	0.25866896
1	0x3e1b5f84	0.15173155
2	0xbe382af9	-0.17985143
3	0xbdd4873f	-0.10377359
4	0xbd27b24b	-0.040941518
5	0xbda468cd	-0.08027802
6	0x3ddf8b7e	0.10915278
7	0x3db272c7	0.08713298

weight f4 [13, 8]
0	0xbd5b1305	-0.053484935
1	0xbe9799c1	-0.29609492
2	0x3e149eb6	0.14513668
3	0x3cf1b19a	0.029503632
4	0xbb9a5679	-0.0047100154
5	0x3eb46687	0.35234472
6	0xbd03a94a	-0.03214387
7	0x3ecf52a8	0.4049275
8	0xbead278c	-0.33819234
9	0xbe84f35e	-0.25966924
10	0x3e236d50	0.15959668
11	0xbdfa74ae	-0.12229286
12	0xbe9eeb0b	-0.310387
13	0x3ca65838	0.020305738
14	0x3e1c8cd2	0.15288094
15	0xbd718c07	-0.05897143
16	0xbe9ff29c	-0.31239784
17	0x3ea3a1ba	0.31959325
18	0x3e82d568	0.2555344
19	0x3eb47c5b	0.35251126
20	0x3e45a3b1	0.19300725
21	0xbe131970	-0.14365172
22	0x3e3cbba4	0.18430954
23	0xbe56b5c7	-0.2096778
24	0x3e0705f1	0.1318586
25	0x3dfa1ee2	0.12212922
26	0x3e3b6023	0.18298392
27	0x3e9b5137	0.303354
28	0x3ea8d0b7	0.32971737
29	0xbd1f1440	-0.03883767
30	0x3e344a90	0.17606568
31	0xbe9d4c1a	-0.30722123
32	0x3ead5499	0.33853605
33	0x3e6c8265	0.23096617
34	0x3e8ee87a	0.2791174
35	0x3e360d5e	0.17778537
36	0xbe382163	-0.17981486
37	0xbec69647	-0.38786528
38	0x3d6d3790	0.057914317
39	0xbeb37b37	-0.35054943
40	0xbe1da5b6	-0.15395245
41	0x3e73c6e3	0.23806338
42	0xbe0d2c5e	-0.13786456
43	0x3e198ce0	0.14995146
44	0xbe16a609	-0.14711775
45	0xbeba1b22	-0.36348826
46	0xbe7848c1	-0.24246503
47	0xbd32bb4b	-0.043635648
48	0x3df8f375	0.12155811
49	0x3eacadf9	0.3372648
50	0xbe5c3328	-0.2150389
51	0xbe9bd9e6	-0.3043968
52	0x3eaaab8d	0.33334008
53	0xbe5aee10	-0.21379876
54	0x3e8ae7ee	0.27130073
55	0xbeafa680	-0.34306717
56	0x3ebf3e90	0.3735242
57	0xbe69b23e	-0.228219
58	0xbeee3b92	-0.46529824
59	0xbe63f18d	-0.22260113
60	0xbec38807	-0.38189718
61	0x3e038d60	0.12846899
62	0xbee22ab1	-0.44173196
63	0x3edb1149	0.42786625
64	0xbda8c867	-0.08241349
65	0x3e63047c	0.2216968
66	0xbe8b74a9	-0.27237442
67	0x3de8e79e	0.113723025
68	0xbe29296e	-0.1651971
69	0xbe94ad4c	-0.29038465
70	0xbe0a2156	-0.13489279
71	0xbe64d6c0	-0.22347546
72	0xbedf7903	-0.43647012
73	0x3ecba2b4	0.3977257
74	0xbe2fa2eb	-0.17151992
75	0x3eb30b42	0.34969527
76	0xbde3fe02	-0.111324325
77	0x3ded8fa1	0.11599661
78	0xbe02fc00	-0.12791443
79	0x3ddfdfd4	0.10931364
80	0x3e70e398	0.2352432
81	0xbd3c66f5	-0.045996625
82	0x3e5b2a9a	0.2140297
83	0x3e78a2a9	0.242808
84	0xbec31788	-0.3810389
85	0x3dcda002	0.10040285
86	0xbe25ab43	-0.16178612
87	0xbe1d302f	-0.15350412
88	0x3dedf02b	0.11618074
89	0xbd841ee3	-0.06451204
90	0xbe01de13	-0.12682371
91	0xbdc26d4f	-0.09493505
92	0x3e8d9eb1	0.27660134
93	0xbe884f52	-0.26623017
94	0x3eca712f	0.39539477
95	0xbd76abfa	-0.060222603
96	0x3e8e7f43	0.27831468
97	0xbe2dfdc7	-0.1699134
98	0x3e29835b	0.16554014
99	0xbe067750	-0.13131452
100	0xbe5bfd90	-0.21483445
101	0x3d448ad6	0.047983967
102	0x3e2e15d3	0.17000513
103	0x3e5eaa5e	0.21744677

bias f4 [13]
0	0x3e4ce83f	0.2001047
1	0xbe952a76	-0.29133958
2	0x3c88afb2	0.01668534
3	0xbda9f6cf	-0.08299028
4	0xbe86df16	-0.26342076
5	0x3e6146a9	0.21999611
6	0xbec3cfff	-0.38244626
7	0x3eeb7c0b	0.45993075
8	0xbebb93c6	-0.3663618
9	0xbdcabf2b	-0.09899744
10	0x3e77ab32	0.241864
11	0xbebc7b30	-0.36812735
12	0xbe7c6cc8	-0.24650872

weight f4 [18, 13]
0	0x3ec82851	0.3909326
1	0x3da2da6e	0.079518184
2	0xbe90b500	-0.28263092
3	0xbe813fbf	-0.25243947
4	0xbebf141b	-0.37320027
5	0x3da2824b	0.07935008
6	0x3d7d8126	0.061890744
7	0x3e88dbd8	0.26730227
8	0xbec0c1ea	-0.37647945
9	0x3ce0eaf2	0.02745578
10	0x3e487f14	0.19579726
11	0xbe97b787	-0.29632208
12	0x3e87dd93	0.26536235
13	0x3e551eb6	0.20812497
14	0xbd0b788a	-0.034050502
15	0xbd590035	-0.052978713
16	0x3e02ddda	0.12779942
17	0x3ea36aab	0.3191732
18	0x3da1664c	0.0788084
19	0x3db45bde	0.08806585
20	0xbe9bfd03	-0.3046647
21	0xbd0ae9d4	-0.033914402
22	0x3c91b6ae	0.017787304
23	0xbe122bc9	-0.14274515
24	0x3e135486	0.14387712
25	0xbdcf6b82	-0.10127927
26	0xbe40b0ac	-0.18817395
27	0x3e4a9d58	0.19786584
28	0xbcbbf368	-0.022943214
29	0xbe093a31	-0.13401105
30	0xbd86d378	-0.06583303
31	0x3e8d5298	0.27602077
32	0x3d9a42b8	0.07532257
33	0xbe336dd5	-0.17522366
34	0xbd1cd8ec	-0.03829281
35	0xbe9d101d	-0.30676356
36	0x3df9bf96	0.12194745
37	0x3e4a9e36	0.19786915
38	0x3d9fa492	0.07795061
39	0x3c70c543	0.014695468
40	0x3e2672d1	0.16254736
41	0x3e954966	0.2915756
42	0x3e9fb6f8	0.31194282
43	0xbe1d003d	-0.15332122
44	0x3e48cf19	0.19610251
45	0x3c3955d7	0.01131197
46	0xbeb91913	-0.36151943
47	0x3e3c7f7b	0.18408005
48	0xbe814875	-0.25250593
49	0xbd0eba77	-0.034845795
50	0xbe4d8fc8	-0.2007438
51	0x3db9e798	0.09077376
52	0xbabd3f6a	-0.0014438455
53	0xbda062f3	-0.07831373
54	0x3dee4af7	0.11635392
55	0x3d149438	0.036274165
56	0xbe1df049	-0.15423693
57	0xbea579ad	-0.32319394
58	0xbe543618	-0.2072376
59	0x3ea0ed75	0.31431165
60	0xbdbb3b3c	-0.091421574
61	0xbdd19b99	-0.10234756
62	0xbe1a0ece	-0.1504471
63	0xbc8ec0f8	-0.017425999
64	0x3e72af87	0.23699771
65	0x3e9a1115	0.30091158
66	0xbda17363	-0.078833364
67	0xbde64d5d	-0.112452246
68	0xbda66399	-0.081244655
69	0x3d5e5b68	0.05428639
70	0x3df090ff	0.11746406
71	0xbe65103a	-0.22369471
72	0x3eb8428e	0.35988277
73	0xbd47c985	-0.04877617
74	0xbd884294	-0.06653324
75	0x3e01f554	0.12691242
76	0xbe39015f	-0.1806693
77	0x3e3b684a	0.18301502
78	0x3e0288a1	0.12747432
79	0xbe67ccaf	-0.22636674
80	0x3daf113b	0.08548208
81	0xbeb8ed28	-0.36118436
82	0xbe92868a	-0.2861827
83	0x3e18337e	0.14863393
84	0xbeb0204b	-0.34399638
85	0x3e8c9bd6	0.27462643
86	0xbc71f76a	-0.014768461
87	0xbc82e5d0	-0.015978724
88	0x3e2cf138	0.16888893
89	0x3d4a7517	0.04942807
90	0x3db2a2f1	0.08722485
91	0xbea5a077	-0.32348987
92	0x3e0bcc72	0.13652208
93	0xbe248217	-0.1606525
94	0xbe3a2437	-0.18177877
95	0x3e2b1b5f	0.1670966
96	0xbe0a39d7	-0.13498627
97	0x3d9c7bfd	0.076408364
98	0xbe1ad1f2	-0.1511915
99	0x3e18c961	0.1492057
100	0xbe8fafd3	-0.2806383
101	0x3e86a27e	0.26295847
102	0xbcbcf19f	-0.023064433
103	0x3e0f0857	0.13968025
104	0x3e855f7e	0.26049417
105	0x3dca8633	0.09888878
106	0xbdab1f4a	-0.08355577
107	0x3d8460ca	0.064637735
108	0xbda114fd	-0.07865331
109	0xbe8959e3	-0.2682639
110	0xbe38a2a4	-0.18030792
111	0xbe14c241	-0.14527227
112	0xbd66c721	-0.056342248
113	0x3d5fc94c	0.05463533
114	0xbe22c681	-0.15896036
115	0xbe5d78de	-0.21628138
116	0xbe5c7b05	-0.21531303
117	0x3e1131fb	0.14179222
118	0x3df4cbbf	0.11952924
119	0x3eaa7d50	0.3329873
120	0x3eabd88a	0.33563644
121	0xbd4800ab	-0.048828762
122	0x3dfc026a	0.12305148
123	0x3eaa4f3e	0.33263582
124	0xbddca001	-0.10772706
125	0xbd7238fa	-0.05913637
126	0xbdf9c8e9	-0.12196524
127	0x3e69e599	0.22841491
128	0x3e87d8d0	0.26532602
129	0xbe794f46	-0.24346647
130	0xbd2546e2	-0.040350802
131	0xbdc78344	-0.09741834
132	0xbd7d9857	-0.06191286
133	0x3e62eb74	0.2216013
134	0x3e8eadb0	0.27866888
135	0xbe458c13	-0.19291715
136	0x3e193dee	0.1496503
137	0xbe144f54	-0.14483386
138	0x3e6d2be4	0.23161274
139	0x3d2b7778	0.04186198
140	0xbc86532b	-0.01639708
141	0x3e74b9fa	0.2389907
142	0xbe1ba45f	-0.15199421
143	0xbe89ae6b	-0.26890883
144	0x3e257f2e	0.16161796
145	0xbe076a22	-0.1322408
146	0x3e9beb1d	0.30452815
147	0x3e8f26c3	0.2795926
148	0xbc089e7e	-0.008338569
149	0x3de48812	0.11158766
150	0xbe46b6d2	-0.19405678
151	0x3e7df2d1	0.24799658
152	0xbc6a026f	-0.014282807
153	0x3e311562	0.17293313
154	0xbdd7632e	-0.10516964
155	0x3e8dc4f1	0.27689317
156	0x3d68e20b	0.056856196
157	0x3e56fec2	0.2099562
158	0xbc4092ab	-0.011753718
159	0xbdd6c6d4	-0.10487142
160	0x3ebbcfe9	0.3668206
161	0x3eb72e44	0.35777485
162	0x3ea6eade	0.32601064
163	0xbe2c9628	-0.16854155
164	0xbe08aa2f	-0.1334617
165	0xbeb5d38e	-0.35512966
166	0x3e6c0ecd	0.23052521
167	0x3eab5683	0.3346444
168	0x3d8c8820	0.06861901
169	0xbe90a233	-0.28248748
170	0x3d1f621c	0.038911924
171	0x3d9d556f	0.07682311
172	0x3c40eb0b	0.011774789
173	0xbe6a37bb	-0.22872822
174	0x3e3efe9e	0.18651816
175	0xbdf0e263	-0.1176193
176	0xbe881684	-0.26579678
177	0xbe20e7d8	-0.15713441
178	0xbe456106	-0.19275293
179	0x3deff8ae	0.11717354
180	0x3cf26d11	0.029593023
181	0xbe1885f4	-0.14894849
182	0x3e04dc2d	0.12974615
183	0x3cc54df5	0.024085024
184	0x3e08d466	0.13362274
185	0x3d1d5f32	0.038420863
186	0x3db4a6d8	0.088208854
187	0x3e4ed74a	0.20199314
188	0x3de2bdee	0.110713825
189	0xbe77428d	-0.24146481
190	0x3c4b6d81	0.0124162445
191	0xbe6cd56a	-0.23128286
192	0x3dacc3ca	0.08435781
193	0x3de18553	0.11011758
194	0xbcd15dd2	-0.025557432
195	0xbdfa6676	-0.12226574
196	0xbda5f360	-0.08103061
197	0x3e924741	0.28569987
198	0x3df6dec0	0.12054205
199	0xbd9bd250	-0.07608473
200	0x3d15939c	0.036517724
201	0x3ea2398f	0.3168454
202	0x3d923d5e	0.07140611
203	0x3e8d5d5d	0.27610293
204	0x3e01a52c	0.12660664
205	0xbd309981	-0.043115143
206	0x3e843aec	0.25826204
207	0xbe035064	-0.12823635
208	0xbcec0376	-0.028810244
209	0xbe8ce83e	-0.27520937
210	0x3d6db50a	0.05803398
211	0xbe8c65d9	-0.27421454
212	0xbd847f89	-0.06469638
213	0xbe9defa7	-0.30846903
214	0xbe94bd5d	-0.29050723
215	0x3e2076cd	0.15670319
216	0x3ccbdbc5	0.024885068
217	0xbe13d17f	-0.14435385
218	0xbc30851b	-0.010773922
219	0xbd8c42af	-0.068486564
220	0xbc868cd8	-0.016424581
221	0xbe4c89db	-0.19974463
222	0xbe3a41ce	-0.18189165
223	0xbd82a017	-0.06378191
224	0x3ca8266c	0.020526133
225	0xbd8e5fc6	-0.06951861
226	0x3e41305d	0.18866105
227	0xbcd452cf	-0.025918392
228	0xbde3e5c2	-0.11127807
229	0x3d4a149c	0.04933606
230	0xbe39876a	-0.18118063
231	0x3d77e225	0.060518403
232	0xbe447fd1	-0.19189383
233	0x3e6843dd	0.22682138

bias f4 [18]
0	0x3eac9e5d	0.33714572
1	0xbe373e42	-0.17894843
2	0x3ce2ff6c	0.027709685
3	0xbe92658c	-0.285931
4	0x3e8dfd12	0.2773214
5	0x3d8ba83f	0.068192
6	0x3ecab5ae	0.39591736
7	0xbd21f80d	-0.0395432
8	0xbdedbb63	-0.11608007
9	0xbea435bb	-0.32072243
10	0xbd6a8594	-0.057256296
11	0xbe5e66fa	-0.2171897
12	0xbe0c97aa	-0.1372973
13	0xbdbb6ff6	-0.09152214
14	0xbe5fe480	-0.2186451
15	0xbe892d01	-0.26792148
16	0x3e5871aa	0.2113711
17	0xbdde8065	-0.10864333

weight f4 [23, 18]
0	0x3e9d2c8c	0.3069805
1	0x3cdce235	0.026963333
2	0xbe89ceb1	-0.26915506
3	0xbe53bf95	-0.20678551
4	0x3e4ba6eb	0.19887893
5	0x3e1d702b	0.1537482
6	0x3eacc196	0.33741444
7	0x3b7c7c62	0.0038526286
8	0x3da59316	0.08084695
9	0xbe741784	-0.23837095
10	0xbeae0356	-0.3398692
11	0xbdd59dbe	-0.104304776
12	0x3d848f68	0.06472665
13	0x3dd1db53	0.10246911
14	0xbeae78f1	-0.34076646
15	0x3c79e8b4	0.015253235
16	0x3d170205	0.03686716
17	0xbe81e2f2	-0.25368458
18	0x3dbe7f77	0.09301656
19	0x3e132f27	0.14373456
20	0x3e9caa66	0.30598754
21	0x3e90ffa3	0.28320035
22	0xbda2475d	-0.07923768
23	0x3d1aa770	0.037757337
24	0xbe94dc9c	-0.29074562
25	0xbdc9c766	-0.09852485
26	0x3e919417	0.28433296
27	0x3d4320f8	0.047638863
28	0x3e9a442b	0.30130133
29	0x3e617c91	0.22020175
30	0x3e77fd91	0.24217822
31	0x3e96b042	0.2943135
32	0x3b8d8326	0.0043186126
33	0x3b8b6aa9	0.0042546582
34	0xbe113fc2	-0.14184478
35	0x3d9bdd22	0.07610537
36	0xbd3d1248	-0.046160012
37	0xbcde645e	-0.027147468
38	0x3e3e76a1	0.18599941
39	0x3cee7a3f	0.029111026
40	0xbde334d6	-0.11094062
41	0xbe1dab84	-0.1539746
42	0xbdb22b25	-0.086996354
43	0xbde5ac83	-0.112145446
44	0x3d6e7052	0.058212586
45	0x3e6f8fa2	0.23394635
46	0x3e4af4e2	0.19819978
47	0x3e2c1fef	0.16809057
48	0xbb9ca57e	-0.0047804704
49	0x3e2b0a23	0.16703086
50	0x3e73c7ce	0.23806688
51	0x3e41b9f5	0.18918593
52	0xbdabb13a	-0.08383413
53	0xbd89ac24	-0.06722286
54	0xbd955b18	-0.072927654
55	0xbe04be32	-0.12963179
56	0xbe2022c6	-0.15638265
57	0x3e8fa0a2	0.2805224
58	0xbe93faf2	-0.28902394
59	0xbe233b84	-0.15940672
60	0x3b4fa96d	0.003168668
61	0xbd8eeaf0	-0.069784045
62	0xbe2f85d0	-0.17140889
63	0x3d58b16e	0.052903585
64	0x3dfc68f0	0.12324703
65	0x3e85b01a	0.26110917
66	0xbcfa0359	-0.030519174
67	0xbd774d69	-0.06037656
68	0x3ea4de75	0.3220097
69	0xbdf5d70d	-0.12003908
70	0xbdd66367	-0.10468178
71	0x3df3d66f	0.11906134
72	0xbce40429	-0.027834015
73	0xbeae2ef9	-0.34020212
74	0xbeafee23	-0.3436137
75	0x3dc9c552	0.09852089
76	0x3cd8dc85	0.02647234
77	0xbcfe5121	-0.031044545
78	0x3e83e7a8	0.25762677
79	0xbdeaf7a1	-0.11473013
80	0x3d60342a	0.054737248
81	0xbe35c8ff	-0.17752455
82	0xbe798816	-0.24368319
83	0xbea03987	-0.3129389
84	0xbe5aedd3	-0.21379785
85	0xbeb9215c	-0.36158264
86	0x3df5ef32	0.120085135
87	0xbe2c377b	-0.16818039
88	0xbcabfd7b	-0.020994892
89	0xbd0137a3	-0.0315472
90	0xbdf98014	-0.12182632
91	0xbe27a2aa	-0.16370645
92	0xbd649861	-0.055809382
93	0x3e597fce	0.2124016
94	0xbe242a7c	-0.16031832
95	0xbdc8ed8e	-0.09810935
96	0x3dd232fe	0.10263632
97	0xbdf8c61e	-0.12147163
98	0x3e3e662e	0.18593666
99	0xbe2cb0fe	-0.16864392
100	0xbc5c8f88	-0.013461955
101	0x3e83de7a	0.25755674
102	0x3e406f0c	0.18792361
103	0xbd3e2ac0	-0.04642749
104	0x3dae9efe	0.08526419
105	0x3e3db98d	0.18527813
106	0xbe1e44fa	-0.15456
107	0x3e253ea6	0.1613718
108	0x3e59be41	0.21263982
109	0x3e13c76b	0.1443154
110	0x3d49ba3b	0.04924987
111	0x3db508ac	0.08839545
112	0x3e3efc44	0.18650919
113	0x3e01ccff	0.12675856
114	0xbd90efb6	-0.07076971
115	0xbd957f2e	-0.07299648
116	0x3da24357	0.07923
117	0x3e4888dc	0.19583458
118	0xbdf40e65	-0.11916808
119	0xbde99c79	-0.11406798
120	0xbe112379	-0.14173688
121	0x3d50517c	0.05085896
122	0xbb8b814a	-0.004257356
123	0x3d9cd5e7	0.07657986
124	0x3e411cd7	0.18858658
125	0x3e34dc2d	0.17662115
126	0xbe809aff	-0.25118253
127	0x3e100a43	0.14066415
128	0xbc20e481	-0.009820105
129	0xbe0f8145	-0.14014156
130	0xbcb0c9eb	-0.021580657
131	0x3da93960	0.082628965
132	0xbd9f62c2	-0.077825084
133	0x3d05e3d7	0.032687988
134	0xbdfb9725	-0.12284688
135	0x3e8cdf4a	0.27514106
136	0x3e88e3da	0.26736337
137	0x3d1580a7	0.036499646
138	0x3de442f7	0.11145585
139	0x3d461691	0.048361365
140	0x3dcfb364	0.10141638
141	0x3e5f4687	0.21804248
142	0xbd156483	-0.03647281
143	0xbd72e2f0	-0.059298456
144	0xbe277ebd	-0.1635694
145	0x3cd19fa2	0.025588814
146	0x3e849c3a	0.2590044
147	0x3e389ea4	0.18029267
148	0xbdd0cd21	-0.10195375
149	0xbe048250	-0.12940335
150	0xbc447910	-0.011991754
151	0xbe1fb8c6	-0.15597829
152	0x3e488ba4	0.19584519
153	0xbe6e1e48	-0.23253739
154	0xbe17754f	-0.14790843
155	0xbe0ac7a5	-0.13552721
156	0x3df79c07	0.12090307
157	0xbe355da2	-0.177115
158	0x3d7cd1fd	0.061723698
159	0xbe293abd	-0.16526313
160	0xbe59e905	-0.21280296
161	0x3e86b80c	0.26312292
162	0xbe2be551	-0.16786696
163	0x3d1b448f	0.03790718
164	0x3e8a7999	0.27045897
165	0x3cae17d5	0.021251598
166	0x3d8c4b76	0.068503305
167	0x3d1251c7	0.03572252
168	0xbd924ea0	-0.07143903
169	0x3e8959e2	0.26826388
170	0xbd878ee7	-0.06619053
171	0x3ea4d586	0.32194155
172	0x3b14bad0	0.0022694357
173	0x3e50148b	0.20320337
174	0x3e398752	0.18118027
175	0xbdac57d3	-0.08415189
176	0x3e588d90	0.21147752
177	0xbe14d795	-0.14535363
178	0x3e0e3203	0.13886265
179	0x3e74e096	0.23913798
180	0x3e93a62b	0.28837714
181	0x3cc76630	0.024340719
182	0xbea4a1bf	-0.32154652
183	0xbe0faeab	-0.14031474
184	0x3e802ba7	0.25033304
185	0x3dbe918d	0.09305105
186	0x3e894399	0.26809385
187	0xbe9da9f3	-0.30793723
188	0x3e04b00b	0.1295778
189	0xbe4c506d	-0.19952555
190	0xbe9a348f	-0.30118224
191	0xbc757c01	-0.014983178
192	0xbe7320e5	-0.23743017
193	0xbe7d3a91	-0.24729373
194	0xbeb99b84	-0.36251462
195	0xbdc456bd	-0.095868565
196	0x3e9ac587	0.30228826
197	0xbd4303fa	-0.047611214
198	0x3ea07cc4	0.3134519
199	0xbe77dd68	-0.24205554
200	0xbe7a5528	-0.24446547
201	0xbea0fa42	-0.31440932
202	0x3dcc5e48	0.0997892
203	0xbc93952e	-0.01801547
204	0x3c53bdc4	0.012923662
205	0xbe289399	-0.16462554
206	0xbdffbf8e	-0.12487708
207	0x3d54ac90	0.05192238
208	0xbe232b6a	-0.1593453
209	0xbda69b9f	-0.08135151
210	0xbd712315	-0.058871347
211	0x3d3108e3	0.043221366
212	0xbe0e0d3e	-0.13872239
213	0xbdf23142	-0.118258014
214	0x3e6731c6	0.22577581
215	0xbe23cd37	-0.15996252
216	0xbd26b109	-0.040696178
217	0xbc14c5f9	-0.0090804035
218	0xbd9e4562	-0.077280775
219	0x3e51090c	0.20413607
220	0xbdd72a87	-0.10506158
221	0x3d6bd285	0.057573814
222	0xbda83ec1	-0.08215094
223	0x3e7bfe0b	0.24608628
224	0x3e58cf5e	0.21172854
225	0x3e0457ec	0.12924165
226	0x3e3fbc36	0.1872414
227	0x3e12085d	0.14261003
228	0x3e81d138	0.25354934
229	0x3e376e65	0.17913206
230	0x3c97e599	0.018542098
231	0xbe049e50	-0.12951016
232	0x3e2796a8	0.16366065
233	0xbdf5d215	-0.120029606
234	0x3e91f6b5	0.28508535
235	0xbe156db8	-0.14592636
236	0xbdf129a8	-0.117755234
237	0xbe06a40e	-0.1314852
238	0x3e23b961	0.15988685
239	0x3e601f2e	0.21886894
240	0x3d55a31e	0.052157514
241	0xbe756ff9	-0.23968495
242	0xbd9fc959	-0.07802076
243	0xbe9fa094	-0.311772
244	0xbe9876e6	-0.29778212
245	0xbd2db9ef	-0.04241365
246	0xbe8e8bcd	-0.27841035
247	0xbe912737	-0.2835023
248	0xbe2d8021	-0.16943409
249	0xbd8376cb	-0.06419142
250	0x3af54c2a	0.0018714715
251	0xbd6f3a11	-0.058404986
252	0xbe8e4c41	-0.27792552
253	0x3e9df064	0.30847466
254	0x3e245727	0.16048871
255	0x3e8b0e72	0.27159458

bias f4 [23]
0	0x3d861699	0.06547279
1	0xbd231c41	-0.039821867
2	0xbbf05512	-0.00733436
3	0xbe083f63	-0.1330543
4	0x3ea82335	0.3283936
5	0xbe84c1e0	-0.25929165
6	0xbdb305fb	-0.08741375
7	0xbe8abb50	-0.27096033
8	0xbe04ac64	-0.12956387
9	0xbe8a286d	-0.26983967
10	0x3e960cd8	0.29306674
11	0xbd7ebc5f	-0.062191363
12	0xbe5c24f0	-0.21498466
13	0x3e3c2e31	0.18376996
14	0x3d6b1649	0.0573943
15	0xbdf7602c	-0.1207889
16	0x3e81eb05	0.25374618
17	0xbea6c430	-0.32571554
18	0x3c0ad09b	0.008472587
19	0xbd9dbbb6	-0.07701819
20	0xbda943b7	-0.08264869
21	0x3eb25e70	0.34837675
22	0xbda9c18c	-0.08288869

weight f4 [28, 23]
0	0xbd744145	-0.05963256
1	0x3dde574b	0.108564936
2	0x3dda450e	0.106577024
3	0xbe3e48cc	-0.18582457
4	0x3d9c0138	0.0761742
5	0xbe12bf27	-0.14330731
6	0x3d8eac31	0.06966437
7	0xbc9abc9b	-0.018888762
8	0xbe3fd752	-0.18734482
9	0xbdacc42a	-0.08435853
10	0xbe08d286	-0.13361558
11	0xbc44f511	-0.012021319
12	0xbde868eb	-0.113481365
13	0x3e4b6f7b	0.19866745
14	0xbdd8ecf3	-0.105920695
15	0x3d9f4d87	0.07778459
16	0xbe17f8d6	-0.14841017
17	0x3d4b6865	0.049660105
18	0x3e85e4bd	0.26151076
19	0xbe290402	-0.16505435
20	0x3d1b1973	0.037866067
21	0x3d4521ae	0.048127823
22	0xbd4733eb	-0.048633497
23	0x3eb7d97a	0.3590811
24	0xbe7b3a11	-0.2453387
25	0xbe6ecf73	-0.23321323
26	0xbe410709	-0.1885034
27	0x3e177f6f	0.14794706
28	0xbdee7073	-0.11642542
29	0xbd171c71	-0.03689236
30	0xbe31ef6b	-0.17376487
31	0xbdffc77f	-0.12489223
32	0xbe9e5e56	-0.30931348
33	0x3e84582b	0.25848517
34	0x3e71aee8	0.23601878
35	0xbdc8c452	-0.0980307
36	0x3ddf4957	0.1090266
37	0xbe76c0e1	-0.24097015
38	0xbe76af95	-0.24090417
39	0x3e99729b	0.2997025
40	0xbd4dfe43	-0.05029131
41	0x3e92bb0b	0.28658327
42	0xbdaa0490	-0.083016515
43	0xbe0dfaba	-0.13865176
44	0x3d1482c0	0.036257505
45	0xbdbf3632	-0.09336509
46	0xbd03d613	-0.03218658
47	0xbc58402a	-0.013198892
48	0xbe506834	-0.2035225
49	0xbe68e766	-0.22744521
50	0x3daa0052	0.08300842
51	0xbd06fbfd	-0.03295516
52	0x3e8474c9	0.2587035
53	0xbea852b7	-0.32875606
54	0x3cd2a122	0.0257116
55	0xbe05f490	-0.13081574
56	0x3e65d915	0.22446091
57	0xbdbe443b	-0.09290358
58	0x3d4f103d	0.050552595
59	0x3ea47033	0.3211685
60	0xbd1d16bb	-0.038351756
61	0x3ca4c1b8	0.020111904
62	0x3dbafb56	0.0912997
63	0xbea487ce	-0.3213486
64	0x3e4d95da	0.20076695
65	0xbe320e39	-0.17388238
66	0xbe91aea7	-0.28453562
67	0x3eb3f2b3	0.35146102
68	0xbdec1263	-0.115269445
69	0x3d91cc66	0.07119064
70	0xbdcfd6f3	-0.1014842
71	0xbd8a42ae	-0.067509994
72	0xbdeb4ffb	-0.114898644
73	0x3d939daf	0.0720781
74	0xbda5c9dd	-0.08095143
75	0xbe174d51	-0.14775588
76	0xbdefb527	-0.11704474
77	0x3d9af504	0.07566264
78	0x3dd85464	0.10562971
79	0xbe1dd404	-0.15412909
80	0xbe1b2381	-0.15150262
81	0x3e544e03	0.20732884
82	0x3de01284	0.109410316
83	0xbddb5126	-0.10708837
84	0xbdef0390	-0.11670601
85	0x3c4edb40	0.012625515
86	0x3d9ccf49	0.07656724
87	0x3de094cf	0.10965883
88	0xbd3f576b	-0.046714228
89	0xbdf768d7	-0.120805435
90	0x3b64ea0f	0.003492955
91	0xbda4a260	-0.08038783
92	0x3ca08eed	0.019599402
93	0x3da5fa01	0.08104325
94	0xbcee17b3	-0.029064035
95	0xbddc9c86	-0.10772042
96	0xbc04072c	-0.0080583505
97	0x3cde3528	0.027124956
98	0xbe2ab9dd	-0.16672464
99	0xbd942e65	-0.072354116
100	0xbd6bf178	-0.05760333
101	0x3e3a5447	0.18196212
102	0x3e450c7f	0.19243048
103	0x3dadc024	0.084839135
104	0x3b1af06a	0.0023641833
105	0x3df5d581	0.12003613
106	0x3e46fc4a	0.19432178
107	0xbd2eb140	-0.042649508
108	0xbe24f251	-0.16108061
109	0xbdaa6b6b	-0.083212696
110	0x3d9a2658	0.07526845
111	0xbdb90fda	-0.090362266
112	0xbd7ff97a	-0.06249378
113	0x3e067e2e	0.13134071
114	0xbd0c7c9d	-0.034298528
115	0x3df9b5f1	0.12192906
116	0xbddf6d43	-0.10909512
117	0xbbd14054	-0.0063858423
118	0xbc25e61a	-0.010125661
119	0xbc1f0dec	-0.009707909
120	0x3e2b895c	0.16751617
121	0x3dab684e	0.08369504
122	0xbdf8e21c	-0.12152502
123	0xbda45978	-0.08024877
124	0x3e21bff5	0.15795882
125	0x3d1ad776	0.037803136
126	0xbde9105f	-0.11380076
127	0x3d58be2a	0.05291573
128	0xbdd42502	-0.10358621
129	0x3e5443a1	0.20728923
130	0x3e10bb49	0.14133944
131	0x3dabe4d9	0.083932586
132	0xbe4523d9	-0.19251956
133	0x3e4b0c49	0.19828905
134	0xbe4f142b	-0.20222537
135	0xbdff4ef6	-0.124662325
136	0xbe27de63	-0.16393428
137	0xbe545028	-0.20733702
138	0x3df822c8	0.12116009
139	0x3db3fd56	0.08788554
140	0x3ca39600	0.019968987
141	0xbd91f859	-0.07127447
142	0x3d3abccb	0.045590203
143	0xbdacb751	-0.08433402
144	0xbda0d56a	-0.078532055
145	0xbdfce6fe	-0.12348746
146	0x3dcf82da	0.1013238
147	0xbc867ced	-0.016416991
148	0x3e4add4b	0.19810979
149	0xbd69c161	-0.057069186
150	0x3e11953f	0.14217089
151	0xbdccd3e4	-0.100013524
152	0xbd87888f	-0.06617843
153	0xbd79e6b9	-0.06101105
154	0xbc8255ed	-0.015910113
155	0xbd7c6f40	-0.061629534
156	0x3d816a13	0.0631906
157	0x3ce6d54b	0.028177878
158	0xbd8e7f9d	-0.06957934
159	0x3e0f431f	0.13990448
160	0xbe2b25df	-0.16713665
161	0xbd901690	-0.070355535
162	0xbe81bf20	-0.2534113
163	0xbe476b37	-0.19474493
164	0xbd6584d8	-0.056034893
165	0xbdfa39ae	-0.12218033
166	0xbd0796ba	-0.03310273
167	0xbd30f35c	-0.043200836
168	0xbe584d85	-0.21123321
169	0xbd1f1d06	-0.03884604
170	0x3dd4c1d8	0.10388535
171	0xbde41efd	-0.11138723
172	0x3e07e477	0.13270746
173	0xbcd1d233	-0.025612926
174	0x3ced37da	0.028957296
175	0x3e2e9b8b	0.17051522
176	0x3db2c060	0.08728099
177	0xbb450e51	-0.0030068348
178	0x3e0b594e	0.13608286
179	0x3e2dbb25	0.16965921
180	0x3d81decb	0.063413225
181	0x3d15e785	0.036597747
182	0x3e622c01	0.22087099
183	0xbdb24706	-0.08704953
184	0x3e20d208	0.1570512
185	0x3de3c7eb	0.11122116
186	0xbdb51e9d	-0.0884373
187	0x3caf19b5	0.021374563
188	0x3bb0b31e	0.005392446
189	0xbe238448	-0.1596843
190	0xbbcd8a5a	-0.0062725963
191	0x3da6835f	0.08130526
192	0x3ceff762	0.029292766
193	0x3d86a353	0.065741204
194	0x3e09027d	0.13379855
195	0x3d32095e	0.043465964
196	0xbe171640	-0.14754581
197	0x3e559c7b	0.20860474
198	0xbd5bab15	-0.053629953
199	0xbcadcaf0	-0.021214932
200	0x3e2b9b2e	0.16758415
201	0xbdbe1749	-0.09281785
202	0xbd3ff9e4	-0.046869174
203	0xbd9bd49f	-0.07608914
204	0xbdb58a81	-0.08864308
205	0xbe14fb8d	-0.14549084
206	0x3df486c0	0.11939764
207	0x3e58db82	0.21177486
208	0xbe0429f6	-0.12906632
209	0x3d8a15b3	0.0674242
210	0xbe637e3b	-0.22216122
211	0x3e138f63	0.14410166
212	0xbe7e1e6c	-0.24816293
213	0x3e34a631	0.17641522
214	0xbde30e04	-0.11086658
215	0xbe21e8d9	-0.1581148
216	0xbe6e24de	-0.23256251
217	0x3e8aaef2	0.27086598
218	0x3d30887f	0.043098923
219	0xbe8782ca	-0.26466972
220	0xbd647eeb	-0.0557851
221	0x3bed620d	0.0072443546
222	0xbe12d692	-0.14339665
223	0x3e981379	0.29702356
224	0xbc90555e	-0.017618831
225	0x3e03c98e	0.12869856
226	0xbc9bd280	-0.019021273
227	0xbdd7688b	-0.10517987
228	0x3e87e09d	0.26538554
229	0xba9dfa3a	-0.0012052723
230	0xbddd04ae	-0.10791908
231	0xbd345d99	-0.044034574
232	0xbe2bed8f	-0.1678984
233	0xbe0f8b9e	-0.14018103
234	0xbdd3aec9	-0.10336072
235	0x3d16ca15	0.036813814
236	0x3e1ef418	0.15522802
237	0x3b6b5148	0.0035906602
238	0xbd9ae18f	-0.07562553
239	0x3d6236cf	0.05522805
240	0xbd3f7fe2	-0.046752818
241	0x3e096dc2	0.13420776
242	0x3bd4e1b7	0.006496634
243	0xbcda76dd	-0.026668007
244	0xbd013576	-0.031545125
245	0x3e3be750	0.18349957
246	0x3e28cc4c	0.16484183
247	0x3e38b837	0.18039022
248	0x3ceb8aa5	0.028752634
249	0x3e38e705	0.18056877
250	0x3b8539f7	0.004065748
251	0xbe15dd3d	-0.14635177
252	0xbe318d17	-0.17338978
253	0x3cd1f9f5	0.025631884
254	0xbe4abdab	-0.19798915
255	0xbe145cec	-0.14488572

bias f4 [28]
0	0xbe0aa7df	-0.135406
1	0x3d61d313	0.055132937
2	0x3c8f4326	0.017488074
3	0x3d5523ee	0.05203622
4	0x3e4e0bc5	0.20121677
5	0x3d9dbfc4	0.07702592
6	0x3e4ba54c	0.19887275
7	0xbdceb253	-0.100926064
8	0xbd362913	-0.044472765
9	0x3e377877	0.17917047
10	0xbe198eee	-0.1499593
11	0xbdf6741f	-0.12033867
12	0x3c639daa	0.0138925705
13	0xbe62d4e0	-0.22151518
14	0x3be44af6	0.006966944
15	0x3e2aec3b	0.16691677
16	0xbdfe0165	-0.1240261
17	0x3befa27f	0.007313072
18	0xbded83f0	-0.11597431
19	0xbde46483	-0.111519836
20	0xbe740dfa	-0.23833457
21	0x3e6b3d1c	0.2297253
22	0xbd44f17a	-0.048081852
23	0xbb873770	-0.0041264817
24	0xbe0476b0	-0.129359
25	0xbc5ec14b	-0.013595889
26	0xbe8867cb	-0.26641688
27	0xbe1d67c4	-0.15371615
